model/knowledge_system/artifacts/sale/best_lstm_model.pt (torch, 239271 bytes, 10 tensors)

lstm.weight_ih_l0 f4 [256, 22]
000000 9e 81 9d bd 7a e1 49 bc a3 cd e7 3d f3 b2 8f bd
       -0.07690738 -0.012321824 0.11318519 -0.07016554
000010 01 e6 dd bd 07 f8 de bd 64 ba 19 3e 70 dc 91 bc
       -0.108348854 -0.10887151 0.15012509 -0.017805308
000020 6d 08 81 3d cb af 85 bd 0f fb 09 bd d7 77 20 bd
       0.06300435 -0.065276705 -0.033686694 -0.03917679
000030 de f5 c5 bc 30 67 8d 3c 43 31 3b 3e a1 51 36 3e
       -0.02416509 0.017261118 0.1828051 0.17804576
000040 87 e2 16 be 11 20 bb bb 44 9d 2c bc df 0d 0f 3e
       -0.14734851 -0.0057106097 -0.010535542 0.13970135
000050 be 0a df bd 1b 64 3d bc 4b e9 29 bc c2 4d 0c be
       -0.10890721 -0.011559512 -0.010370563 -0.13701537
000060 3b 5b 08 3d 9b 8e f5 3c b9 9c 37 bd ad 36 4d 3c
       0.03329013 0.029975226 -0.044827197 0.012525243
000070 f5 b9 7d 3d 09 b7 0c be 6a e4 07 be 76 8d 72 bd
       0.06194492 -0.13741697 -0.13270727 -0.05921694
000080 65 dc 05 3d 75 fe 84 bd c5 9a ff bc be e0 28 3e
       0.032680888 -0.06493846 -0.03120173 0.16491982
000090 19 4e 8f bc f0 ca 3f 3e 1c fd c4 3d 72 70 62 3d
       -0.017493295 0.18729758 0.09618589 0.055283017
0000a0 e1 41 87 3e 36 28 83 3d e2 cb 2c 3d 4b 13 0a 3e
       0.2641745 0.06404154 0.042186625 0.13483922
0000b0 06 e8 76 ba a7 c5 3d 3e 1c e9 fd 3b 44 df 5f 3d
       -0.00094187295 0.1853243 0.007748736 0.054656282
0000c0 3b 3e 9a bc 7c 6c 11 be e7 06 97 3d 28 4c bc 3c
       -0.018828502 -0.1420154 0.073743634 0.022985533
0000d0 84 db fc bc 9c d2 a7 3d 61 ff 30 3e 95 99 16 3e
       -0.030866392 0.081944674 0.1728492 0.14707024
0000e0 6e 2c 65 3c 7e 61 d9 bd bb fc 51 bc ab 31 83 3d
       0.013987644 -0.10614298 -0.012816603 0.06405958
0000f0 cc 18 2d 3d 82 6f c2 bc f4 c5 68 be 58 8e bc bd
       0.042259976 -0.023734812 -0.22731763 -0.092068374
000100 39 a4 0c 3e cc 7c 1b be 88 54 cd bc cc 4f 29 be
       0.13734521 -0.15184325 -0.025064722 -0.16534346
000110 ea f9 7f 3c 86 25 b4 bd a4 7b 88 bd 87 09 46 3d
       0.015623549 -0.087962195 -0.066642076 0.04834893
000120 6f 1c 16 3d 0c c3 b3 bd 13 f0 ba 3d 75 fb b5 bd
       0.03664821 -0.087774366 0.09127822 -0.08885852
000130 dd 6c c3 bd 20 d0 02 be 53 ea f5 3c d4 6f 27 3e
       -0.095422484 -0.12774706 0.030018961 0.16351253
000140 18 45 78 bd d6 65 51 3a fd 89 48 3d 78 1a 98 3d
       -0.060612768 0.0007987892 0.04895972 0.074269235
000150 fc 33 99 bd 9e 50 b0 3d 1f 93 e6 3d 1e 23 09 3e
       -0.07480618 0.086091265 0.1125853 0.13392302
000160 41 6d 0c bd a1 22 06 3e 41 8b 1a 3c 28 68 3d 3d
       -0.03428388 0.13099147 0.009432615 0.04624191
000170 cd 4f b2 bd d1 6a 73 bd e2 ec c3 bc e1 d7 1e 3e
       -0.08706627 -0.05942804 -0.023916665 0.15512039
000180 52 86 fa 3d bf 87 40 bd fe 16 2c 3e 0f bb 1b 3e
       0.12232651 -0.047004458 0.16805646 0.15208076
000190 b6 a7 aa 3d 2c 49 dc 3b bf e8 ff bd 48 a1 3f be
       0.083327696 0.00672259 -0.12495565 -0.18713868
0001a0 dd a1 df bc cd b5 d0 bd 81 3e 25 3e af c7 84 bc
       -0.027298862 -0.10190926 0.16137125 -0.016208498
0001b0 26 48 b0 3d 4c b0 6a 3c 61 0a 74 3d 14 32 85 bd
       0.08607511 0.014324259 0.05958021 -0.06503692
0001c0 95 98 bc bd 37 ce 2a bd 07 12 81 bc fa 17 77 3d
       -0.0920879 -0.041700568 -0.015755666 0.0603256
0001d0 c5 c0 23 bd fa 5f 81 bd 6a d4 70 bd f0 42 99 bc
       -0.03997876 -0.06317134 -0.058796324 -0.018708676
0001e0 30 63 51 bd 12 07 0a be 9e c2 f5 3c 58 db 33 3e
       -0.051119983 -0.1347926 0.030000027 0.17564142
0001f0 17 e1 ad 3d f2 de 5e bd 9e 61 d9 3d e3 1b 9c bd
       0.08490198 -0.054411836 0.10614322 -0.076225065
000200 ca 91 1e 3e aa 88 06 be 32 cf 61 3c 61 9d e0 bb
       0.15485302 -0.1313807 0.013782309 -0.0068546985
000210 05 52 c6 bd 7a 1d aa bc 54 6e 93 3d d1 6e 94 3d
       -0.09683613 -0.020766009 0.07198778 0.07247699
000220 80 c5 00 3e 34 74 07 bd e7 0e f1 3d 60 a0 b4 bd
       0.1257534 -0.033069804 0.117704205 -0.088196516
000230 a4 f1 43 be 56 e8 f8 bc 3e 25 6d bd ca 24 e0 bd
       -0.19135147 -0.030384224 -0.057896845 -0.10944517
000240 20 0f 81 3d 6b 60 35 3e 09 12 37 be 23 bd a4 3d
       0.06301713 0.17712562 -0.17877974 0.080438875
000250 3f 8d 35 3c 8c 7d 3e 3e c8 c3 18 be 2f a5 34 be
       0.011081039 0.1860258 -0.14918435 -0.17641138
000260 1f 6b 70 bd 62 99 2d 3e 23 19 07 3e 51 20 c3 3c
       -0.05869591 0.16953042 0.13193183 0.02381912
000270 4e c2 75 bd 7c 68 bc bc 42 c1 b7 3d 19 38 28 be
       -0.059999757 -0.02299904 0.08972408 -0.1642765
000280 3d 1c dc 3d db 2b 48 bc 2a 0c 03 3b c1 ef ac 3d
       0.107475735 -0.012217487 0.0019996264 0.08444167
000290 d7 0e 99 bd 69 8b 32 bd 8f 87 1f bd 7e d9 49 bd
       -0.074735336 -0.043589983 -0.038947638 -0.049279682
0002a0 0c 01 9e 3d 8c 70 86 3b 4a 54 ec bd 7e 2e 5f 3e
       0.077150434 0.004102772 -0.11539514 0.21795079
0002b0 cb 94 6f 3d 1b a3 f3 bd 35 76 fd 3a 0f 1c 0b 3d
       0.05849151 -0.11896344 0.0019337597 0.033962306
0002c0 22 49 c4 bd 39 ff a7 3d 2f b2 13 3d 30 c7 cc bd
       -0.095842615 0.08202977 0.0360586 -0.099989295
0002d0 e6 d7 5b 3d 58 e9 53 3d 3d 16 d8 3d da 16 c0 3c
       0.053672694 0.051736206 0.105511166 0.023448396
0002e0 d0 55 10 be 45 6c d2 3d 14 81 e0 3d 72 fa 99 3d
       -0.14095235 0.10274557 0.1096212 0.07518472
0002f0 35 5f a0 bc b5 79 b5 3d b8 71 b7 3e cd 4f 15 3e
       -0.019576648 0.088611044 0.35828948 0.14581223
000300 89 cc 1e 3c 9d 76 c0 bc 72 a7 26 be 66 1c 0c bc
       0.00969232 -0.02349406 -0.16274813 -0.008551693
000310 47 71 2c 3d 75 39 88 bd 44 b3 cc bd 5a 64 8a bd
       0.042100217 -0.06651584 -0.0999513 -0.06757422
000320 52 d2 8b 3c 77 bb 32 bd 3a bb 03 be f0 7b 9b bb
       0.017068062 -0.04363581 -0.1286439 -0.004744999
000330 37 99 fb 3c f0 24 ad 3d 03 ae 94 3d 8b d1 62 3c
       0.030712707 0.08454311 0.072597526 0.013843904
000340 df 17 f6 bd 2b 3a 48 3d d9 f2 bf 3c 1a f7 32 3d
       -0.12016272 0.0488836 0.023431228 0.043692686
000350 ca 94 0a be aa ef 49 be dc 32 2f 3d 29 f5 8c bd
       -0.13533321 -0.19720331 0.042773113 -0.06882698
000360 8a f0 eb 3d bc 50 0a bd bf 12 3a bd b1 81 cb 3d
       0.115204886 -0.0337684 -0.045428034 0.09936846
000370 40 2a 0a 3d ac 26 11 3d 27 d7 6a bd 37 7a 12 3e
       0.0337317 0.03543727 -0.05733409 0.14304434
000380 0d 42 9c 3d d6 4a 5a 3e 96 a4 8b 3c 2a a3 d1 3d
       0.07629786 0.2131761 0.017046254 0.10236199
000390 90 ec 36 bd f4 d2 5c 3d 74 d6 28 3e 41 6b 12 3c
       -0.044659197 0.053912118 0.16488057 0.008936704
0003a0 47 45 fa 3b 10 cb 3d bd bd 1d 1f 3d 60 9e ec 3d
       0.007637653 -0.046336234 0.03884672 0.11553645
0003b0 24 a7 2f bd e3 44 bd 3d 6e 56 82 bc ae 61 76 3d
       -0.042884007 0.09241655 -0.015910354 0.06015175
0003c0 3e b1 39 bc ce 6b ac 3d fb 1c ec 3d 5c 34 a4 3c
       -0.011333762 0.084189996 0.11528965 0.020044498
0003d0 42 9f 27 3e 5f 0e a9 bd 2f 9a a9 bd 69 96 6f bd
       0.16369346 -0.08254694 -0.08281361 -0.05849305
0003e0 a0 49 83 3d 18 8a 33 bd 95 08 aa bd de b4 2f 3d
       0.06410527 -0.04383287 -0.08302418 0.042897098
0003f0 44 60 91 3d 99 33 d7 3d 7a 46 3c be 9d 6e a2 bd
       0.07098439 0.10507888 -0.1838626 -0.07931254

lstm.weight_hh_l0 f4 [256, 64]
000000 0f d5 54 3c 1b 63 1f 3e bd 92 2e bd 6f cb 0b be
       0.01299025 0.1556515 -0.04262041 -0.13651823
000010 9b f4 08 bd dd 24 ff bd e0 e2 8e 3d 10 9d bc bd
       -0.0334364 -0.12458203 0.06976867 -0.09209645
000020 8d c4 47 3d 21 a1 9e bd f2 8b 1b 3e c6 2a dc bc
       0.04877143 -0.07745577 0.15190104 -0.026875865
000030 e8 35 29 bd 7b b9 87 bc 43 fb f6 bd d7 01 b6 bd
       -0.041311175 -0.016567936 -0.12059643 -0.0888707
000040 52 ec 2f bd c0 92 8d 3c 6d e0 89 bd 17 db 67 3d
       -0.042949982 0.01728189 -0.06732259 0.056605425
000050 5c c2 8e bd cb 75 1f bd 6b 1f bd 3c 2b 87 d2 3c
       -0.06970665 -0.038930696 0.02308627 0.025699219
000060 56 ae 57 3e c8 dc dd 3d 25 28 df bd b1 ed 1d bd
       0.21062598 0.10833126 -0.10896329 -0.03855676
000070 1c 36 57 3d 91 5c 20 be a1 2c 9a 3d a7 b0 22 bd
       0.052541837 -0.15660311 0.075280435 -0.03971925
000080 c4 a3 1b be f1 38 bd bb b1 cb 72 3d ce 93 96 3d
       -0.1519919 -0.00577461 0.059276287 0.0735241
000090 ec c4 8c bd 9f 3b a0 3d 61 16 2f bd 47 9f d7 bd
       -0.06873497 0.07823872 -0.04274595 -0.105284266
0000a0 29 0a de 3c 81 50 29 3e 7b 55 3b be 36 62 e8 3d
       0.027104454 0.16534616 -0.18294327 0.11346857
0000b0 5d be 92 bd 51 6a 67 bd ae 20 e8 bb 15 25 89 bd
       -0.07165215 -0.056497876 -0.007083974 -0.06696526
0000c0 a9 91 07 bd 90 be 54 be 10 f8 e3 3d 4d 9e b6 3c
       -0.033097897 -0.20775819 0.111312985 0.02229228
0000d0 14 88 84 3d 33 d9 ba 3d 73 d6 63 3d b5 63 0d 3e
       0.06471267 0.09123459 0.055624437 0.13807566
0000e0 8d df ec 3d 00 4a 1b 3d f1 81 c6 bd 4e 1b de bc
       0.115660764 0.03791237 -0.09692753 -0.02711263
0000f0 6e ad 44 bd 27 a5 c2 bc 09 0a 83 bd e3 76 29 3d
       -0.048016958 -0.023760391 -0.063983984 0.041373145
000100 a8 56 5d 3d 90 26 3a 3e 50 13 8e 3d b0 c2 2d be
       0.05403772 0.18178773 0.06937277 -0.16968799
000110 df 39 3f bc b6 fe 51 bd 86 17 c2 bd 5c 62 05 bd
       -0.011671512 -0.051268302 -0.09477143 -0.032564506
000120 1b d0 9e 3c 81 7d a0 3d d1 fa 80 bd 3b c8 cd 3d
       0.019386342 0.07836438 -0.062978394 0.100479566
000130 65 78 9a bd ab fc 25 bc ec d0 36 3d ba 6f 48 3c
       -0.07542495 -0.0101310415 0.044632837 0.012233669
000140 37 54 c3 bb 0b ae 0e be d6 3b ef 3d a4 04 c7 3d
       -0.005960967 -0.1393358 0.11681335 0.09717682
000150 f1 08 b3 3d e7 84 b2 3d 69 ec b4 bd 95 55 0d be
       0.0874194 0.08716755 -0.08834154 -0.13802178
000160 b0 3a eb 3d 06 eb 11 bd 0f 8a 03 3b df ab a6 3d
       0.11485803 -0.035624526 0.0020071303 0.081382506
000170 e3 1c 59 3d d9 73 5b bd a6 4a 41 bd c5 77 85 bd
       0.053006064 -0.053577278 -0.04719033 -0.06516985
000180 97 76 13 3e a4 37 20 3c e0 bd a3 3c 6a 42 15 3e
       0.14400707 0.009778891 0.019988 0.14576116
000190 07 de b0 3d 39 c0 1c 3e bc 23 c1 3d ab 76 8d 3d
       0.08636098 0.15307702 0.09430644 0.069074
0001a0 9a 66 1f 3d c2 92 05 be cf fe b6 3d 6b 2c bb 3d
       0.038916208 -0.13044265 0.0893532 0.091393314
0001b0 ca 90 c1 3d 56 80 32 3d 9b b1 83 bc b7 e2 74 be
       0.094514444 0.043579422 -0.0160759 -0.2391461
0001c0 85 c9 51 bd 81 18 b7 bd a7 21 b9 bb ab ac 41 bb
       -0.051217575 -0.089402206 -0.0056497636 -0.002955238
0001d0 ee 95 29 be 59 cf 44 3d 5f a9 c4 bd 32 c2 06 3d
       -0.165611 0.048049305 -0.096026175 0.032900043
0001e0 35 2b dd bc 5b 33 2f bd 26 55 67 bd fa 2a b1 bd
       -0.026998142 -0.042773586 -0.05647769 -0.08650775
0001f0 73 9c 1b be 76 79 0d bd 43 89 ad 3c b6 47 69 3d
       -0.151964 -0.034539662 0.021183616 0.056953155
000200 de 10 17 be db bc c0 bc c6 35 9c bd 36 13 38 3e
       -0.14752528 -0.023527553 -0.07627444 0.17976078
000210 79 09 bd 3d 86 a5 88 bc 65 16 a8 3b ef 2d 9d 3d
       0.092303224 -0.01668049 0.0051296228 0.07674777
000220 59 51 f0 3d bf 13 bf 3d 21 54 3a bd 5f 01 cf bd
       0.11734266 0.09329938 -0.045490388 -0.101076834
000230 1e 39 bf bd e7 cc e1 3d a9 02 1a be 9b 40 c5 3a
       -0.09337066 0.1102541 -0.15040077 0.0015049161
000240 e5 8f 40 bd fa 3e 02 be e8 c1 ee 3b e9 d6 dc 3a
       -0.04701223 -0.12719336 0.007286299 0.0016848716
000250 f7 f7 83 be 27 27 b9 3d d2 45 fb 3d c6 29 93 3d
       -0.2577512 0.09040671 0.122691765 0.07185702
000260 8e cb 29 3e 0f dd a2 bd c5 03 95 3d 1b 05 bd bc
       0.16581556 -0.0795232 0.072761096 -0.023073724
000270 58 97 8f 3d 12 7b ca bd 15 99 f7 bd cf 30 f1 3d
       0.070112884 -0.09886755 -0.12089745 0.117768876
000280 a9 80 75 3d 3a 6f 00 be 8b 2a 01 3c e6 06 cd bd
       0.059937153 -0.1254243 0.007883678 -0.100110814
000290 63 de e6 bd 9f 62 a0 3d f7 79 f2 3d ec 91 4f 3c
       -0.11272886 0.078313105 0.11839669 0.012669068
0002a0 5b c3 b7 bd 81 15 c9 bc 13 cd db bd 0a d5 e0 bc
       -0.08972808 -0.024546387 -0.10732474 -0.027445335
0002b0 d5 5d 8b bd 58 75 a4 bb 31 20 c2 3d 83 f5 2c bc
       -0.068050064 -0.0050188713 0.09478796 -0.010556581
0002c0 81 61 27 3e b3 ca 9b 3c 64 71 5c 3c 7e b2 c6 3d
       0.16345789 0.019017553 0.013454769 0.097020134
0002d0 a8 c5 22 3c 3c 34 57 3d d6 ac e4 bd 60 93 a0 3c
       0.00993482 0.05254005 -0.11165778 0.019601524
0002e0 60 c0 76 bc ed 30 1f be ac 04 7b bd 3a 37 b4 bd
       -0.015060514 -0.15546007 -0.061283752 -0.08799596
0002f0 9b 3e 6b bd 9c 6e 02 be 2c a1 b6 bc 00 6f 13 3e
       -0.057432752 -0.12737507 -0.02229365 0.14397812
000300 70 49 11 3e 0c c6 0d 3e 2c f0 1c be ac e3 99 3d
       0.1418817 0.1384508 -0.15325993 0.07514128
000310 8d 64 23 3e bd d1 31 bd 00 6b a5 bd 6d 1f d1 3d
       0.15956326 -0.043412913 -0.08077049 0.10211072
000320 50 82 db 3d 2b fa 2c bd 7d 6e db bc 04 04 f9 3d
       0.107182145 -0.042230766 -0.026786083 0.12158969
000330 88 ee 3c bd 18 a5 0c bd 11 9b e3 3c a1 52 35 3d
       -0.04612592 -0.034337133 0.027783902 0.044268254
000340 64 55 0d 3e 58 22 6a 3c 0f 2d da bd d2 ad e1 bc
       0.13802105 0.014290415 -0.106531255 -0.027548704
000350 2b 57 0f 3e 42 86 b6 bc d6 e8 cb 3d c2 ba 0e 3e
       0.13998096 -0.022280816 0.09956519 0.1393843
000360 83 39 ef 3d 54 1c 5a 3d 0a 0d b5 bc 08 f1 9c ba
       0.11680891 0.053249672 -0.022100944 -0.0011973688
000370 04 1c d9 bb bf 24 ad 3d 98 80 29 be ae fb 8d 3d
       -0.006625654 0.084542744 -0.16552961 0.0693277
000380 90 00 cc 3c d1 bb 20 bd 14 f6 f4 3d 7d f6 12 3e
       0.024902612 -0.039241616 0.11960998 0.1435184
000390 93 b0 24 3e e7 f5 e6 bc ad 59 4c 3d c6 47 c4 3d
       0.16082983 -0.028193427 0.04989021 0.09584002
0003a0 80 4f c7 3c 15 17 3e bd 63 ad 77 3d c7 e2 74 bd
       0.0243299 -0.04640873 0.06046809 -0.059786584
0003b0 8b 2e e3 3c 58 7d bb 3c b7 43 0f bd 9c 1b 0a 3b
       0.027732154 0.022886917 -0.034976687 0.0021073585
0003c0 a8 59 81 3d 7b c0 d9 bd 38 00 16 3d 5a 3e c8 3b
       0.06315929 -0.10632416 0.036621302 0.0061109485
0003d0 14 2a dc 3d a9 29 72 3d d9 20 08 be 97 bb 01 3d
       0.10750213 0.05912176 -0.1329378 0.03167304
0003e0 73 37 05 3e fc 98 16 3d 59 1e 7d 3d c5 5b c1 3d
       0.13009433 0.03676699 0.06179652 0.09441332
0003f0 79 e2 84 bd d8 e6 91 bd e2 b7 c6 3d 1b f1 d6 bd
       -0.06488509 -0.07124108 0.097030416 -0.10495206

lstm.bias_ih_l0 f4 [256]
000000 4b 8e 04 3e 67 2b fb 3d 77 3c 45 3c 6b 25 12 3e
       0.12944905 0.12264138 0.012038342 0.14272086
000010 76 cc 50 3d 1f 02 8d 3d 2d 0b 9c bc 98 19 11 3e
       0.05097624 0.0688517 -0.019048298 0.1416992
000020 54 27 ab bb b0 c2 3a bc 59 fc bc 3c f5 c1 e6 3b
       -0.005223194 -0.011398956 0.023069547 0.0070421644
000030 26 ac 2c 3d 00 dc 0e 3d 76 5e 4c 3d a5 0e e3 3d
       0.04215636 0.034877777 0.049894772 0.110867776
000040 49 3a c5 3d fc 9a 21 3d 57 f9 13 3d 84 c5 c1 3d
       0.09630258 0.039454445 0.03612646 0.09461501
000050 cb df f2 3d d2 33 88 3d 3a f5 98 3d f4 c8 c9 3c
       0.11859091 0.06650509 0.07468648 0.024631955
000060 65 3e 68 3e bf 45 2f 3d 98 5c c7 bc 61 c4 36 3c
       0.22680052 0.042791124 -0.024336144 0.011155219
000070 b8 6b f0 3d 84 ab 68 bd 0f 43 fe bc 52 4d 72 3d
       0.11739296 -0.056804195 -0.031037835 0.05915577
000080 b9 c6 74 bd dd 8a c3 bc ec 52 d0 3c af 7c 0b bd
       -0.05975983 -0.023869926 0.025430165 -0.034054454
000090 3d 46 69 bd 08 bf 4d 3c d5 b3 ca 3d 98 45 91 bd
       -0.05695175 0.012557752 0.098975815 -0.07093352
0000a0 17 b9 0a 3e 26 9f 06 bd be 9e 91 bd aa dd 92 3d
       0.13547169 -0.03286662 -0.07110356 0.07171185
0000b0 54 cd 9c bd 6e fa 2b 3d bb 0e 0f 3e a7 56 24 3e
       -0.07656351 0.041986875 0.13970463 0.1604868
0000c0 6f cb 62 bc 82 64 a3 bd dc 81 bb bd c4 fb 01 3e
       -0.013842448 -0.07978155 -0.09155628 0.12693697
0000d0 fb 2e 6c bd 7b ed 97 3d 71 bf 99 3b fc 02 4b bd
       -0.05766199 0.07418343 0.004692011 -0.049563393
0000e0 a6 29 8f 3e af 33 61 3e ea 8b 38 3d 99 a0 c8 3d
       0.27961463 0.21992372 0.045055307 0.097962566
0000f0 f3 df f3 bc 7f 03 0c 3e 7b 3f 15 3e 23 93 76 3d
       -0.029769873 0.13673209 0.14574997 0.060198914
000100 72 e6 94 3d b4 ac a4 3c 44 9b 19 3d 31 0d a5 bc
       0.072705165 0.020101883 0.03750159 -0.020147892
000110 93 e5 37 3e 55 06 17 3d dc ac 0d bd 82 f7 86 3d
       0.1795867 0.036871273 -0.03458868 0.06590177
000120 0e 05 b0 bd 80 02 88 bd 68 c2 d2 3d 90 1e 22 bd
       -0.08594714 -0.06641102 0.10290986 -0.039579928
000130 0a 52 88 bb 1f 18 91 bd d3 5b 87 3d db 09 02 bd
       -0.0041601704 -0.07084679 0.06609311 -0.03174768
000140 04 0d 17 bc 22 ad c2 bd d8 e7 28 bd f8 3f 80 3b
       -0.009219412 -0.09505679 -0.04123673 0.0039138757
000150 c3 4c 64 3d 21 5d bd bc 9a e2 26 3d 1e 14 f3 3c
       0.05573727 -0.023115696 0.040743448 0.029672679
000160 fe 35 1f 3d b7 af 09 3e fe aa 0b ba 30 fc 04 3d
       0.03886985 0.13445936 -0.0005327909 0.032467067
000170 be 30 81 bd 04 83 de 3b b9 43 54 bd 07 50 6d 3b
       -0.06308125 0.0067905206 -0.051822398 0.003621103
000180 e8 f9 ba bd 27 88 bf bd 6b e8 0e bd 09 e3 ec bc
       -0.09129697 -0.09352141 -0.03488962 -0.028916853
000190 2f 8f f8 3d 89 3a 7c bd 0e 3b d0 3d 76 c6 9d bd
       0.12136685 -0.06157926 0.10167514 -0.07703869
0001a0 eb 24 d0 bd 39 42 3c bc b5 6a b7 bd 03 b2 a2 bc
       -0.101632915 -0.011490398 -0.089558996 -0.019860273
0001b0 6d 4c 5a bd e1 51 03 be ac 80 c3 bd e2 49 1f 3e
       -0.05329554 -0.12824203 -0.095460266 0.15555528
0001c0 76 bd 8f bc 4f 36 be bc 05 87 ae bb f1 ed 0b 3e
       -0.017546397 -0.023219256 -0.005326154 0.13664986
0001d0 9c e0 b2 bd ce 2c f2 bd f2 86 cc 3d b2 e4 5a 3d
       -0.08734247 -0.11824952 0.09986676 0.053440757
0001e0 80 72 1f 3e 7f 83 0c 3e ed 0e ee 3d 1a 5b a8 3d
       0.15571022 0.13722037 0.116239406 0.08220501
0001f0 9b 98 ba 3d dd 14 6a 3d da 51 c2 bd 60 bc 8c 3d
       0.091111384 0.057148803 -0.09488268 0.06871867
000200 f3 d6 07 bd 5d 9c e8 3d 7a a6 99 bd 27 34 4c 3d
       -0.033163976 0.11357949 -0.07502456 0.049854424
000210 34 12 fb bd 8e a1 bb bc 04 cc 95 bc ef 01 2c 3d
       -0.12259331 -0.022904184 -0.018285759 0.04199403
000220 77 d6 a1 bd 9c db 0c 3d 25 a3 a3 3d 2c 43 be 3d
       -0.07902234 0.034389123 0.07990102 0.09290156
000230 91 b6 8e bd 55 fa 96 3d d9 de ed bd 6a 5c f1 bd
       -0.069684155 0.07371966 -0.116147704 -0.11785205
000240 03 e3 e8 3c 19 db b6 bd 45 6b 75 3c d2 93 a6 bd
       0.02842856 -0.08928508 0.014979188 -0.08133663
000250 22 3c 03 3d d8 c9 d6 3d 0b 7b 25 3d 31 8d ea 3d
       0.03203977 0.104877174 0.040400546 0.114527114
000260 7a b1 37 bd 8a ac 4d 3d 14 01 2c 3d a2 05 8d 3d
       -0.04484699 0.050213374 0.041993216 0.0688584
000270 0a a6 3f bc e5 c9 94 3d 13 fb 8f bd ef fc b8 bc
       -0.011697302 0.07265071 -0.070303105 -0.022581546
000280 a0 7f 1f bd 64 04 b0 bd a8 60 a3 3d bf f1 27 bd
       -0.038940072 -0.085945874 0.0797742 -0.04100203
000290 9f 4e 22 3d 2c 39 9b 3d d6 ae 01 3d 3d 9f 56 3c
       0.03962576 0.07579264 0.031660877 0.013099489
0002a0 bc 57 d3 3d 09 53 65 3d 27 de 76 bc bf 5c 3c bd
       0.103194684 0.05598739 -0.015067614 -0.045986887
0002b0 89 08 fb bd a6 98 2f bd 36 e8 2c bd ba 9c cd 3c
       -0.12257487 -0.042870186 -0.04221364 0.025099147
0002c0 12 7d 3e bd 2f cd 58 bd 88 9a 14 bd 38 56 1e 3d
       -0.046505995 -0.052930053 -0.036280185 0.038656443
0002d0 5f 9f 3c bd ff a7 29 bd 0d f1 e2 bd 7b 69 cc 3d
       -0.046050426 -0.04141998 -0.11081133 0.09981056
0002e0 b9 e2 ed bc 0d e6 ce bd 17 c8 92 3b e9 62 a2 bd
       -0.029038774 -0.101024725 0.004479419 -0.07929022
0002f0 71 fd a3 3d a9 4b 19 be d5 b0 da bd 68 d2 fd 3d
       0.080073245 -0.14970268 -0.10678259 0.123936474
000300 01 57 8c 3d b1 87 01 3e bf 14 a8 bc f6 3c 92 bc
       0.06852532 0.12649418 -0.020517705 -0.017851334
000310 ce 8d 99 3d 21 31 90 bd 69 9a 38 bd 30 b7 86 3d
       0.0749775 -0.070406206 -0.045069132 0.06577909
000320 6a b8 11 3e 1c 79 1e bd c1 66 98 bd d7 f3 80 bc
       0.14230505 -0.038689718 -0.07441474 -0.015741272
000330 48 81 80 bd fe 36 4b 3e 19 99 06 bd 0d cd ca bd
       -0.062746584 0.19845197 -0.03286085 -0.099023916
000340 51 d0 be 3d 80 2f 98 bd 81 06 33 3e 80 45 40 bd
       0.09317077 -0.07430935 0.1748295 -0.04694128
000350 e1 33 19 3e 5b c6 7d bd b7 75 07 3e f2 fe 9b 3d
       0.14961196 -0.061956745 0.13228498 0.07616986
000360 6b 87 62 3d 84 ce a8 bd 1d 83 a0 bc c2 cc 7d 3c
       0.055304926 -0.08242515 -0.01959377 0.015490713
000370 a0 34 15 3e 46 ce 22 bd 9e 39 64 3d a5 95 bd bd
       0.14570856 -0.0397475 0.05571901 -0.09257058
000380 0f b1 8a bd 20 47 9b bd b5 4f fa 3d 59 1d 7b 3d
       -0.067720525 -0.075819254 0.12222234 0.061307285
000390 eb 27 60 3d 90 51 d0 3d 04 e6 c4 3b a1 28 f5 3d
       0.05472557 0.10171807 0.0060088653 0.1197064
0003a0 c6 1f 1f 3d 0b 92 4e 3e b0 a2 1b 3e dc 6a 49 3e
       0.03884866 0.20172898 0.15198779 0.1966967
0003b0 55 08 f4 3d f6 db a1 bc 41 2b 9b 3d 8b fa 4f bd
       0.11915652 -0.019758206 0.075766094 -0.050776046
0003c0 78 51 42 3d a2 61 84 bd f9 73 a9 3d 86 d7 ce 3c
       0.047440976 -0.064639345 0.08274073 0.025249254
0003d0 eb 28 2b 3d f6 d1 ac 3d 0c be d4 3d 83 43 61 3d
       0.04178707 0.08438484 0.10387811 0.054996025
0003e0 51 c1 31 3e 9f b3 fb 3c a2 e4 cf 3c 86 46 ab 3d
       0.173589 0.030725298 0.025377575 0.08363061
0003f0 b2 e8 12 bb 69 45 c8 3d d2 0b 46 bc d1 12 77 3a
       -0.002241653 0.09778864 -0.012087779 0.0009425106

lstm.bias_hh_l0 f4 [256]
000000 5c 36 b5 3d 71 78 e8 3d 58 c1 0c 3e 98 e3 67 bc
       0.08848259 0.113510974 0.1374563 -0.014153384
000010 18 d0 1a 3d ba 6f 2d bd 0c 25 12 3d e5 f7 ea 3b
       0.03779611 -0.04234288 0.035679862 0.0071706646
000020 01 7e fa 3c ae 7f 72 3d fa d5 e3 3d b3 5e bb bd
       0.030577661 0.059203796 0.11124797 -0.09148922
000030 14 8e fb 3b 25 df 93 3d 6a da b9 bd cf 9c e3 3d
       0.007676849 0.07220296 -0.09074862 0.11113893
000040 51 5a 90 3d 0b c9 3d bd 83 82 0c 3e 3b d2 68 bd
       0.070484765 -0.046334308 0.13721661 -0.056841116
000050 3d 73 03 3d 91 7a 84 3c 54 58 fe 39 a5 0f 9a bd
       0.03209232 0.016171725 0.00048512465 -0.07522515
000060 67 1b 86 3e 0e ce 90 3d da e3 b0 3d 28 42 89 3d
       0.2619278 0.07070552 0.08637209 0.067020714
000070 ec 02 90 bb 34 f9 31 3c 95 68 bf bd 16 73 c5 bb
       -0.0043948796 0.010862637 -0.09346119 -0.006025682
000080 d7 80 1a 3d 21 b3 a6 3d a1 e9 1f 3e c7 76 15 3d
       0.037720527 0.08139635 0.15616466 0.036490228
000090 56 80 cd 3d 82 7b ad bd d0 38 8a bc c1 18 14 3d
       0.10034244 -0.08470823 -0.016872793 0.03615642
0000a0 38 af 4a bd 13 bb 47 3d cc 5e 97 3d 95 1a 53 3e
       -0.049483508 0.048762392 0.07391128 0.20615609
0000b0 88 54 52 3d ca 58 aa 3d f1 48 5d bd 63 8d 48 bd
       0.051350147 0.083177164 -0.05402464 -0.048962962
0000c0 82 21 bd 3d 9e c6 e9 3d dc fb 9c 3d 45 54 ce 3d
       0.09234907 0.11414836 0.07665226 0.10074667
0000d0 2c 8c a9 bd 35 d2 09 3e 6d 37 f9 bc 03 76 a9 bc
       -0.08278689 0.13459094 -0.030421937 -0.020686155
0000e0 c9 a1 17 3e 42 cf c3 3d 90 93 74 3d 93 80 a9 3d
       0.1480781 0.09561016 0.05971104 0.08276477
0000f0 ec 05 b1 3c 66 3a a0 3d 14 10 bd 3d fb 8c 4f bc
       0.02160927 0.078236386 0.09231582 -0.01266789
000100 38 80 aa bd fc 42 a3 3d e5 e6 bc 3d 31 22 85 3d
       -0.08325237 0.07971761 0.09223727 0.06500662
000110 cc 83 01 bc 01 81 cc bc 10 2a 9f bd 63 37 97 3b
       -0.007904958 -0.024963858 -0.07771695 0.004614757
000120 00 c6 99 3d e4 d2 b3 3d 51 e4 79 3d 27 98 c6 3c
       0.07508469 0.087804586 0.061008755 0.024242474
000130 62 18 fc 3d e2 9a 4d bd e7 ef e3 3d a6 d6 b7 bc
       0.12309338 -0.050196536 0.11129742 -0.02244122
000140 e5 28 6e bd d0 44 b8 3d 29 94 03 3e 41 93 d6 bb
       -0.05814447 0.089975 0.12849487 -0.0065483158
000150 21 6e 3c bc 25 47 f3 bd 46 f5 ac 3d fc 01 aa bd
       -0.011500866 -0.11878804 0.0844522 -0.0830116
000160 ce 92 fe 3c d9 d1 22 3c cd 83 dc bd 1e ac c8 3d
       0.031075861 0.009937727 -0.107673265 0.09798454
000170 25 ff 11 3e 45 16 ed ba 07 33 2b bc 27 ba ab 3d
       0.14257486 -0.0018088302 -0.010449178 0.08385115
000180 6e 0d 13 bd 65 27 fc 3d 7c 01 62 3d 23 64 16 3e
       -0.03590148 0.123122014 0.055177197 0.14686637
000190 39 89 e7 3d 64 7c ee bd ca ef 26 3d a2 04 e0 3d
       0.1130547 -0.116448194 0.040756024 0.10938384
0001a0 db d0 de 3d ad 42 8a 3d dc aa 82 bb a6 fb d4 3d
       0.1087968 0.06750999 -0.003987653 0.10399561
0001b0 67 21 c5 bd 01 b1 6a 3d 30 61 99 3d ef 99 c3 bc
       -0.096255116 0.05729771 0.0748924 -0.023877112
0001c0 ca 47 d2 bd 7d 73 04 3c 6f 4e ae bc 10 12 8f 3d
       -0.10267599 0.008084175 -0.021277634 0.06985867
0001d0 76 e4 d3 bd e1 58 2f bd 24 1d ad bd 0a 0f 01 3e
       -0.1034631 -0.04280937 -0.08452824 0.12603393
0001e0 f2 5b f7 3d fc 29 3b 3e ff 9c b1 bd 9e f4 8d 3a
       0.12078084 0.18277735 -0.08672523 0.0010830348
0001f0 55 8d 57 bd 42 1d 83 bb 4e ab cb 3d 67 85 23 bd
       -0.05262502 -0.0040012905 0.09944783 -0.039922144
000200 5c ed aa 3c a1 f3 52 3d 5e 4a a1 3d b5 5d 1e bd
       0.020865135 0.051501874 0.078755125 -0.038663585
000210 c0 06 b9 3d e6 4e c0 bd e2 4e c2 bd d5 ee d9 bc
       0.090344906 -0.09390049 -0.09487702 -0.026603142
000220 9c 35 ae 3d 04 2f 9a 3c 1d 88 cf 3d 2e fa db 3c
       0.08506319 0.018821247 0.101333834 0.026852693
000230 1a 77 a4 3c 4d 6b cf bd 3d ea 80 bd 8e 12 96 bd
       0.020076323 -0.10127888 -0.062946774 -0.07327758
000240 40 9a f2 bc a8 1b 16 3d f0 04 95 3d 6e 0d 31 3d
       -0.029614568 0.03664747 0.072763324 0.0432257
000250 bf 64 03 be 24 f7 95 3d c9 68 ab 3d 6a 82 28 bd
       -0.128314 0.07322529 0.083695956 -0.041139998
000260 8e bd 4e 3b 61 a0 91 3c 1e 6e b6 bd 96 34 e5 3c
       0.003154609 0.01777667 -0.08907722 0.027979176
000270 cc b6 e8 bd c3 d6 b5 bd af ba c7 bd 75 1b af bd
       -0.11362991 -0.08878853 -0.09752404 -0.08550159
000280 8d 85 b2 3d 04 5a 8e 3d 73 75 11 3d b0 d9 94 bb
       0.08716879 0.06950763 0.0355124 -0.004542552
000290 43 65 37 bc 14 47 7a 3d 9b 7f d5 3d e0 30 f3 3d
       -0.011193576 0.06110294 0.104247294 0.118745565
0002a0 68 6b f1 3d a9 fa 9e bd cc 5b da bc 32 0b db bd
       0.11788064 -0.077626534 -0.0266551 -0.10695495
0002b0 85 fa 6c 3d ca da 65 bd c9 c5 bb bd 4f e2 fb bd
       0.0578561 -0.056116857 -0.09168584 -0.12299024
0002c0 e5 dc ae 3d 22 35 ed bd 40 96 28 bd 8f cb 11 3d
       0.08538226 -0.115824 -0.041158915 0.03559452
0002d0 f4 0a a1 3d 9d 8a dd 3d f9 6d d4 bd cd bd d8 bd
       0.07863417 0.10817454 -0.10372538 -0.105830766
0002e0 21 af c3 bc 3a 7a 54 bb d5 05 b3 bd 4d f4 94 3d
       -0.023887219 -0.0032421486 -0.08741347 0.07273159
0002f0 41 da b0 bd 51 50 36 bd d5 72 9c bd 15 a4 ff bc
       -0.08635379 -0.04451019 -0.0763909 -0.03120617
000300 b9 a8 21 3e 79 88 8a bd ee dd f5 3d e7 74 1a 3d
       0.15787019 -0.06764311 0.1200522 0.037709143
000310 70 b5 d1 ba a2 94 2b 3d ab f8 91 3d 58 df f4 3d
       -0.0015999507 0.041889794 0.07127508 0.11956662
000320 11 a1 ff 3c 36 96 43 bd 31 a0 ab 3d 46 43 dd bb
       0.031204732 -0.047750674 0.083801635 -0.0067524044
000330 28 6d 4a 3b 90 44 16 3e 98 3c eb bd 75 b1 b1 bd
       0.0030887816 0.14674592 -0.11486167 -0.08676425
000340 01 8a 05 3c 8d e2 3b 3d 1b 67 27 3d f4 49 ff 3d
       0.0081505785 0.045870353 0.040869813 0.12465277
000350 c0 a1 a2 bc 77 10 bc 3d 9e 53 77 bb 54 71 cc bd
       -0.019852519 0.09182828 -0.0037739049 -0.09982553
000360 5f 3a 25 3e 0e 17 ab 3d 43 42 54 3e 25 07 03 3c
       0.16135548 0.08354007 0.20728402 0.007997309
000370 5b cb ba 3d cd 43 ad bd e5 c5 93 bd 29 c4 fd 3d
       0.09120818 -0.084601976 -0.0721548 0.1239093
000380 ce 22 81 3d 90 e8 d2 3c 06 86 fe 3d d2 2d be bc
       0.063054666 0.02574566 0.12427907 -0.023215208
000390 51 8a cf 3d 0a b9 d3 bd f5 d4 d7 bb 26 d8 d4 3c
       0.10133804 -0.10338028 -0.0065866658 0.025981974
0003a0 fe 8e d2 3d dd c9 35 3b 4a bc 33 3d 6e e1 51 3e
       0.1028118 0.0027738728 0.04388074 0.20496151
0003b0 ae 1c 5e bd 7e d7 7f bd 5d 2c 48 bc 99 3f 1e 3e
       -0.05422657 -0.06246137 -0.012217608 0.15453948
0003c0 64 25 38 3e 1b 84 93 3d f3 02 e7 3d f4 51 36 bd
       0.17983013 0.072029315 0.112798594 -0.04451175
0003d0 95 36 43 3d ec 2b a8 bd d5 99 41 3d fc 53 99 3b
       0.047659475 -0.082115024 0.047265846 0.004679201
0003e0 5d b9 71 3e ed 12 40 3d a1 0e 0f 3e 1f ca 3d 3e
       0.23605867 0.04689305 0.13970424 0.18534134
0003f0 04 df f5 3d f1 40 f5 3d 0e f2 15 3e 47 48 ad bb
       0.120054275 0.11975277 0.14643118 -0.005288157

lstm.weight_ih_l1 f4 [256, 64]
000000 0f 09 10 be c2 ea 96 bd 66 a3 99 bd ed 88 a9 bd
       -0.14065956 -0.07368995 -0.07501869 -0.0827807
000010 f1 eb a1 3d 7a fe 33 3d a4 ae 5d 3d 9c e3 85 bc
       0.079063304 0.04394386 0.05412163 -0.016343884
000020 02 5b 33 3d cb b8 c7 bd a9 94 97 3d 7f c5 5c 3c
       0.043787964 -0.09752043 0.074014015 0.013474821
000030 1a 64 34 bd af 9b 87 3c 46 e8 9a 3d 5e f1 90 3d
       -0.044040777 0.016553728 0.07563834 0.07077287
000040 2b 54 80 bd 41 09 3d 3d 44 b8 c5 3d 50 7e 14 be
       -0.06266054 0.046151403 0.096542865 -0.1450131
000050 21 8c fe 3d 74 ef 9e 3b 0a 8c 1a 3c 6e e9 44 3c
       0.12429071 0.0048503224 0.009432802 0.012018545
000060 5d b1 56 bd 25 d0 af 3d f1 80 b4 3d 3b 1c b5 bc
       -0.05241524 0.08584622 0.08813656 -0.022108188
000070 c2 78 6c bd 69 11 a3 3c 65 9a 13 3d 9e b0 1c bd
       -0.05773235 0.019905763 0.036035914 -0.038254373
000080 bb 05 6a bd 71 85 aa bd 42 f6 09 3d 91 c9 0d 3e
       -0.05713437 -0.08326233 0.033682115 0.13846423
000090 79 17 43 bd dc e1 9f 3b ed 37 91 bc ad b3 9e bc
       -0.047629807 0.0048792195 -0.017726863 -0.019372785
0000a0 89 d8 15 3e c5 78 18 bc 8c 63 e0 bc 31 05 d5 bc
       0.14633383 -0.009306137 -0.027391218 -0.026003452
0000b0 4d 1d 32 be 04 28 e8 bd 21 c0 d3 3b 65 e8 b2 bd
       -0.1739399 -0.113357574 0.0064621125 -0.08735732
0000c0 34 6b 94 3c be 70 a2 bd 17 49 f3 3d 81 de 0d bd
       0.018117525 -0.0793166 0.11879175 -0.034636024
0000d0 33 a6 4c 3b 87 db 1e be fd 3a 0e 3d 92 12 14 be
       0.0031226992 -0.1551343 0.034724224 -0.14460209
0000e0 a1 8f 38 be 8c 55 30 3d 85 a3 fc 3c 6f f6 0b 3e
       -0.1802354 0.043050334 0.030839691 0.13668226
0000f0 1f 85 0f be 28 3b a2 3d 1a 9a 98 bc 29 1f 59 bd
       -0.14015625 0.079214394 -0.018628169 -0.053008232
000100 a8 88 95 bd 46 94 ec 3d f8 6c e2 3c 20 c3 0a 3e
       -0.07301456 0.115517184 0.027639851 0.13550997
000110 14 32 02 be 76 d8 e8 bc e9 53 82 3d ba dd 6a bd
       -0.12714416 -0.02842353 0.06363661 -0.05734036
000120 9d fe 13 bd f6 a5 b7 3d 57 4c 2a bc 72 ee e0 bd
       -0.03613149 0.089672014 -0.010394177 -0.1098298
000130 3d 8f e8 3d 11 83 b6 bb 60 67 ed bd f0 38 5c 3d
       0.113554455 -0.0055698236 -0.11591983 0.053765237
000140 33 e7 f1 3d c1 69 37 3d d7 e4 c2 3b 26 3b f6 bd
       0.11811676 0.04477859 0.00594769 -0.120230004
000150 b8 66 80 bd cb e3 da 3c d1 9c a2 bc eb 40 05 3e
       -0.06269592 0.026719948 -0.019850167 0.13013045
000160 92 08 cc bd 47 76 15 3c 32 f2 36 3d ea 1d 9c bd
       -0.09962572 0.009122438 0.04466457 -0.07622893
000170 8b 80 c8 bd a3 4e 86 3d d9 c1 26 be 4a e2 9c bd
       -0.097901426 0.065579675 -0.16284885 -0.07660349
000180 75 15 16 bd 60 ad ec 3b cb 9f 3d 3d d0 78 89 bd
       -0.036641557 0.0072228163 0.04629497 -0.06712496
000190 da f7 21 3e 35 f2 e8 bc 2b 41 13 3e ef 4e 04 3e
       0.15817204 -0.028435806 0.14380328 0.12920736
0001a0 76 7f 12 3e 63 20 db 3c e0 07 c5 bb 6a dd a3 3c
       0.14306435 0.026748842 -0.0060129017 0.02000304
0001b0 2b 87 92 3d 89 59 0d be b1 de 29 3d bf 6e ba bd
       0.071546875 -0.13803686 0.04147214 -0.091031544
0001c0 27 69 a3 3c 42 a2 0e be 5e 22 0a 3e 85 1d 9b bc
       0.019947601 -0.13929084 0.13489673 -0.018934974
0001d0 9c 8e eb 3d 78 25 64 bd 23 c8 23 3d 3a 27 4a 3d
       0.1150181 -0.055699795 0.039985787 0.049353816
0001e0 a4 c9 11 bd b2 45 a4 3d d1 d8 b6 bc bd b5 ea bc
       -0.03559269 0.08021106 -0.022320183 -0.028651113
0001f0 e9 4a 76 3d db 2b e2 bd ae f0 22 bd e0 9a 03 be
       0.060130034 -0.11043521 -0.03978031 -0.12852049
000200 ae 52 8d bd d7 3d f9 bc 8a 13 19 3d e5 8d cb bd
       -0.069005355 -0.030424995 0.03737215 -0.099391736
000210 11 cf 3f 3d 2d 65 a8 bd 22 68 32 bd 55 77 ec 3b
       0.046828333 -0.08222423 -0.04355634 0.007216374
000220 67 ed a6 3d 56 7f 4d 3d 12 01 ca 3c d4 bd 5b bd
       0.0815075 0.050170265 0.024658713 -0.05364783
000230 d7 57 d4 3d 4c 94 19 bd 21 63 4e bd c5 4f 85 bd
       0.103683166 -0.037494943 -0.050387505 -0.065093555
000240 1a 13 90 bd 19 0b 2c 3d da 73 dc 3c 38 50 cc bd
       -0.07034893 0.04200277 0.026910711 -0.09976238
000250 4c 65 43 3c 72 9b be 3d 93 3e de 3c db 24 57 3d
       0.0119260065 0.093069926 0.027129447 0.052525382
000260 ad d6 6d bd 44 94 e1 bd 98 9d 7c 3c 2b 50 b4 bd
       -0.05806606 -0.110146075 0.015418433 -0.08804353
000270 bd 45 28 be 91 3b 4c bc fb fa 0a be 93 9e a6 bd
       -0.16432853 -0.012465374 -0.13572304 -0.081357144
000280 2b ee 04 3e d6 fd 10 bd 2e c7 eb 3c 6d 6d ee 3d
       0.12981479 -0.035398327 0.0287815 0.11641965
000290 29 fd 27 3d 68 d0 09 3e a5 92 d7 bd d2 ad 20 3e
       0.041012917 0.13458407 -0.10526017 0.15691307
0002a0 6c 97 e4 3c eb ac ae 3c 5a de d6 3d e3 1c fc bd
       0.027904235 0.021322688 0.10491629 -0.12310197
0002b0 bd c4 30 be aa b1 e6 3c 2d 4c 8f 3d 3b 90 db bd
       -0.1726255 0.028160889 0.06996951 -0.10720869
0002c0 7c 4d 0c 3e 32 65 ac 3b 41 6e 12 bd dd 73 81 bd
       0.13701433 0.005261087 -0.035749678 -0.06320927
0002d0 53 d8 36 3b ad a7 1e be 11 d9 4d 3c cb ab 86 bd
       0.0027899935 -0.1549365 0.01256396 -0.06575736
0002e0 26 9a 35 3d 47 70 03 be 7a a5 b2 bd b5 a6 0b 3d
       0.04433646 -0.12835799 -0.087229684 0.03409453
0002f0 59 c6 60 3d 37 27 30 bd 14 46 91 3d 90 0d 9a bd
       0.05487666 -0.04300615 0.070934445 -0.07522118
000300 b7 70 8e 3d 63 3e 02 3e 21 d9 99 bd f1 c2 0c bd
       0.069550924 0.12719111 -0.07512117 -0.034365598
000310 bb 0a b3 3d 2a 5e 3d bd d9 59 85 bc da 0c 1d bd
       0.08742281 -0.04623238 -0.016278194 -0.038342334
000320 70 77 b0 bb 1e 38 28 bd a0 7e 1f bd 2c 54 0c 3e
       -0.005385332 -0.041069143 -0.03893912 0.13703984
000330 94 7b b0 3d 44 ff b2 3c 5d da e4 bd c9 76 95 3d
       0.08617321 0.021850236 -0.11174462 0.07298047
000340 9a 67 22 3d ec f2 fc bc 50 85 11 bd 17 a1 95 bc
       0.039649583 -0.030877553 -0.035527527 -0.01826529
000350 04 0e de 3d b5 75 17 bd a2 0f fa 3d 7d fc a3 3d
       0.10842517 -0.03697749 0.12210013 0.08007143
000360 0e 0f 5e 3e 9a f3 f2 bd 67 77 23 3d 50 7a 87 3d
       0.2168543 -0.118628696 0.039908793 0.06615126
000370 a3 1c ca bd 26 f9 bd bd fb d3 1e be 03 b0 b0 bc
       -0.09868743 -0.09276037 -0.15510552 -0.021568304
000380 12 e5 aa bc 3d f5 8d 3d 50 17 01 be 67 35 88 bd
       -0.020861182 0.06931541 -0.1260655 -0.06650811
000390 4c ed 28 3d bd 35 b2 3c 93 e0 8f bc 7d 2c e2 3c
       0.04124193 0.02175414 -0.01756314 0.027609104
0003a0 4b f9 86 bd da 22 2d be 10 0e d8 bd ea 82 ae 3d
       -0.065905176 -0.16907826 -0.10549557 0.085210636
0003b0 4d ae ab 3c 0e c3 00 be 11 f3 37 bc f4 6c 2a 3e
       0.020957137 -0.12574407 -0.011227385 0.16643125
0003c0 1d a9 ca bd 95 9b c1 bd bf 2b 62 bd 18 d6 2b 3d
       -0.09895537 -0.09453503 -0.0552175 0.041952223
0003d0 a8 15 e2 3d 87 22 e1 bc 28 8d 3a bd 75 db be 3c
       0.11039287 -0.027482284 -0.045544773 0.023298005
0003e0 82 de d8 bd d2 6b 0e 3c c7 60 1b bd 94 92 02 bd
       -0.10589315 0.008692699 -0.03793409 -0.03187807
0003f0 f5 95 b6 bd b2 3e f7 bd 61 56 18 be fd 8e 13 bd
       -0.08915321 -0.12072505 -0.14876701 -0.036025036

lstm.weight_hh_l1 f4 [256, 64]
000000 41 75 1b 3d 6b 1c 9f 3d 21 10 8f bb 60 1b 9a 3d
       0.03795362 0.07769092 -0.0043659364 0.075247526
000010 9d b0 f8 bc 2a 4e 08 3d 1e 26 cc 3c 69 d2 df bd
       -0.030357653 0.033277668 0.02492052 -0.109288044
000020 90 ea 1a 3d 81 bb 51 bd 06 fe 77 3c 2f a1 80 bd
       0.037821352 -0.05120421 0.0151362475 -0.06280743
000030 91 54 30 3d 4f b8 cb 3d 34 23 6b 3d 0d 70 bc 3d
       0.0430494 0.099472634 0.05740662 0.092010595
000040 f2 6f 2d 3e 4b e3 ee bd 40 f0 09 3e 7b df 43 3d
       0.16937235 -0.116644464 0.13470554 0.04782055
000050 14 b3 92 3d 7b a2 b1 bd 77 f0 85 bc 8c 42 f3 3d
       0.07163063 -0.08673569 -0.016350014 0.11877927
000060 e6 29 9c bd 43 cb 82 3c 0d 4b 05 bb 16 c7 0f 3d
       -0.07625179 0.015966063 -0.0020338923 0.035101973
000070 cb 83 a5 3d e9 2e 50 bd 2c 84 84 bd 50 de b0 3d
       0.08081778 -0.050825987 -0.06470522 0.08636153
000080 36 18 91 bd 66 02 d9 3a ec 71 af bd 81 3a 95 bc
       -0.07084696 0.0016556501 -0.08566651 -0.018216373
000090 c9 1e a3 3d 8d 1e b1 3d bf 9c ff bc 40 d0 6e 3d
       0.07964856 0.08648405 -0.031202672 0.05830407
0000a0 42 be ca 3d 7b fa b3 3d 6c f5 38 3c 8a 49 1d bc
       0.0989957 0.0878801 0.011288982 -0.009600053
0000b0 a9 6b 2e bd a1 96 38 bd 2e b2 23 3e 87 ec c1 bc
       -0.04258314 -0.045065526 0.15985939 -0.023672355
0000c0 8a 52 02 be 71 ac 08 be ab ad 71 3d 2d fe 24 be
       -0.12726799 -0.13347031 0.059003513 -0.16112585
0000d0 9e b2 80 bd 3c d3 9c 3d fc 7b d2 3d fc 81 a8 bd
       -0.062840685 0.07657477 0.102775544 -0.082279176
0000e0 96 bc d7 3c 9b 39 a5 3d 49 ee 75 bd 5e 7f 3f 3b
       0.026335042 0.08067628 -0.0600417 0.0029220204
0000f0 43 4f 5c 3d 1c a8 fe bd d5 dd 75 3d 0e 42 d6 bc
       0.053786527 -0.12434408 0.06002601 -0.026154544
000100 60 7d 4c bd f3 1f 0f 3e bb 82 c1 3d 22 c1 3f bd
       -0.049924254 0.13977031 0.09448763 -0.046815045
000110 50 1c 39 3d db f4 3a bc ff 8f c0 3d 03 73 b3 bd
       0.045193017 -0.011410917 0.09402465 -0.08762171
000120 82 01 fa 3a 88 c1 cb 3c 3e 9e 9d 3d 41 e7 f7 bd
       0.0019073936 0.024872556 0.07696198 -0.12104655
000130 69 62 88 bd 19 a0 c6 3d 51 c7 91 bc 67 ad 1e bc
       -0.06659395 0.09698505 -0.017795237 -0.009684897
000140 af f9 ac 3c d4 a8 69 3d 76 c7 d2 bd c5 56 c8 3d
       0.021115152 0.057045773 -0.102919504 0.09782175
000150 11 91 05 bd 8c b7 e1 bd 36 57 46 bc df 2d 85 bc
       -0.03260905 -0.11021337 -0.012105754 -0.016257225
000160 2c 85 cb 3b ae 2a 2e bd c9 11 01 be 66 92 05 3d
       0.0062109437 -0.04252117 -0.12604441 0.03261032
000170 bd f6 19 3d 16 0b ff bd 16 fc 81 3d 07 a5 1f 3d
       0.037588824 -0.12453286 0.0634691 0.03897574
000180 ec 9f 92 bd 96 58 f5 3a 8a 06 dd 3d 31 47 e7 bd
       -0.07159409 0.0018718417 0.10792263 -0.112928756
000190 93 dc e3 bc b2 4f f4 3c d8 a7 02 bd fc e6 67 bd
       -0.027815139 0.029823158 -0.03189835 -0.05661677
0001a0 d1 41 6d 3d 84 7a d6 bc 62 b4 9d bc 9b 44 77 bd
       0.057924096 -0.026181467 -0.019251052 -0.06036816
0001b0 e1 60 1d 3d b1 81 b1 bd ec 33 46 bd 59 1e a2 bc
       0.03842247 -0.08667315 -0.04838936 -0.019789862
0001c0 3c 31 e2 3d 35 73 d0 bd e9 d8 1f 3c 7f 22 07 be
       0.11044547 -0.10178224 0.009756305 -0.13196753
0001d0 90 9b c3 bd 13 4b 16 bd b4 d9 4e bc 96 f1 c2 3d
       -0.095511556 -0.03669269 -0.012625147 0.09518735
0001e0 e4 f4 01 bd 3a f1 b7 3d 90 f2 52 bd bc 5d be bd
       -0.031727687 0.08981557 -0.051500857 -0.09295222
0001f0 a7 0b a9 bd ab 9b dd bd d9 c4 3e 3d 28 9b 08 3e
       -0.08254176 -0.10820707 0.046574447 0.13340437
000200 f8 fc a5 bd 3d 5f a3 bd be ac 71 3b 78 b5 d7 bc
       -0.081048906 -0.0797715 0.0036876644 -0.026331648
000210 ba 83 0a 3e 09 72 f6 3d 24 1f 05 bb ce 50 74 3b
       0.13526812 0.12033469 -0.002031275 0.0037279609
000220 72 d2 13 3d f4 44 e9 3c 04 90 af 3d 01 58 92 bd
       0.03608937 0.028475262 0.08572391 -0.07145692
000230 0b 82 c0 3d a7 f8 67 bb 14 9e 65 3d cd 0e 0b bd
       0.09399804 -0.003539601 0.05605896 -0.033949662
000240 28 0c ee bc 96 09 dd bd e4 1f ea 3d d6 a1 0e be
       -0.02905853 -0.10792844 0.11431864 -0.13928923
000250 5f ff 55 3d ff 52 0b 3d 52 bd 0d be 25 7e cd bd
       0.052245494 0.034014698 -0.13841751 -0.10033826
000260 83 51 e9 bc 22 97 36 3d e7 c7 b8 bd b2 97 99 3d
       -0.02848125 0.044577725 -0.09022503 0.07499637
000270 fd 3f 51 bc 3b ab 5d bd 6b 43 b4 3d dd fe db bd
       -0.012771604 -0.054118376 0.088019215 -0.10741971
000280 c5 0f eb bb fb 06 f4 bd 87 77 6d bd f7 47 10 bc
       -0.0071735107 -0.11915394 -0.05797532 -0.00880622
000290 de 6e c7 bd 7a 8d 8a bc 3c 55 8b 3d 20 a3 f1 37
       -0.09737943 -0.016913164 0.068033665 2.88054e-05
0002a0 4e 98 1f bc 48 ef 72 3d 1d 9f ae bd d8 1d db bc
       -0.009740902 0.059310228 -0.08526442 -0.026747629
0002b0 ec 4d 50 bd 1a f5 a3 bd e2 7c 70 ba 36 7c 4e bc
       -0.050855562 -0.08005734 -0.00091738824 -0.012602856
0002c0 15 b6 29 bd 3b ee e8 bd 7c c8 1c be 45 6a 24 bc
       -0.041433413 -0.11373564 -0.15310854 -0.010035102
0002d0 1f e1 79 3d 1b 8b b8 3d a2 21 64 3b 35 27 cb bd
       0.061005708 0.09010907 0.0034810086 -0.099195875
0002e0 f1 95 b6 3d f2 30 1d be 9b cc 33 3c e5 0e a1 3d
       0.08915318 -0.15350702 0.010974075 0.07864169
0002f0 9a 48 9f 3a 73 93 23 bd 31 6b 24 3c 90 5d b9 3b
       0.0012152374 -0.03993554 0.010035322 0.0056569055
000300 db b8 7b bd f8 2e 9c bc a3 79 86 3c 32 9d d5 bd
       -0.06145559 -0.019065365 0.016415423 -0.10430373
000310 ff 76 c8 bb ff 4d 12 3e d7 53 bc 3d 9a a3 76 bc
       -0.006117701 0.14287566 0.09195679 -0.015053654
000320 4d 8d 82 3d 0b e6 82 3c bd 7c 8c bd 87 c9 c4 3c
       0.06374607 0.015978834 -0.068597294 0.024021877
000330 0b ab 03 3d f4 fb 44 3c ea 8d 2d 3d 9c 72 92 3d
       0.03214554 0.012022961 0.042371668 0.07150766
000340 6c 71 39 3d df dc c7 3d ef c7 58 bd 21 12 a0 bd
       0.045274183 0.09758925 -0.052925047 -0.07815958
000350 35 0b e8 3c 16 47 1c be 5e 07 bb 3d b8 26 aa bd
       0.028325656 -0.15261492 0.091322646 -0.08308166
000360 bb 17 fc 3b f2 9c 7c 3d 75 db e3 bd ce 9e 1b 3e
       0.0076932586 0.061673112 -0.111258425 0.15197298
000370 96 4d 66 3d b3 a7 68 3d 98 b0 9f 3d a9 65 bd 3d
       0.056226335 0.056800555 0.077973545 0.09247906
000380 9e 68 ef bc 85 21 30 bd e3 b9 fc 3c 11 f2 fb 3d
       -0.02922469 -0.043000717 0.030850356 0.1230203
000390 e2 9d b9 3b 38 28 d0 bd 4b 89 b7 bd c3 a5 b9 3d
       0.005664573 -0.10163921 -0.089617334 0.0906482
0003a0 f4 7a 7e 3d f3 11 3f bc eb 1f a8 bd 2c 2b d9 3c
       0.062128976 -0.011661994 -0.08209213 0.026509844
0003b0 90 1c 8a 3d 52 21 47 3d 4e 54 24 be 8f 23 9c 3d
       0.06743729 0.04861576 -0.16047785 0.0762397
0003c0 38 d1 04 bd 56 31 f1 3d b8 dc d0 bd ab 99 3b bd
       -0.03242609 0.11776988 -0.10198349 -0.045800846
0003d0 73 e7 0b be 4c 4e 00 3e 9d 87 bb bd d5 10 1e 3e
       -0.1366251 0.12529868 -0.091567256 0.15436108
0003e0 68 00 4c bd 5b 99 c8 bc 4e 80 b5 bd 1e 4e 04 be
       -0.049805075 -0.024487188 -0.08862363 -0.12920424
0003f0 06 4a 14 bd c1 c8 b4 ba b1 64 c0 3d b4 77 31 3e
       -0.036203407 -0.001379274 0.09394205 0.1733082

lstm.bias_ih_l1 f4 [256]
000000 ea c3 86 3d 68 be 24 3d af 17 17 3e ab 44 1d 3e
       0.065803364 0.040220648 0.14755128 0.15358226
000010 86 bb ef 3d b5 1d a0 3c e1 5b 23 3d 54 64 09 3e
       0.11705689 0.019545415 0.039882544 0.13417178
000020 20 b2 da bc 57 9e df 3c c6 2e 97 bc d5 6c f6 3d
       -0.026696265 0.027297182 -0.01845492 0.12032477
000030 d1 af 46 3d 46 38 13 3e 6a d8 b3 3d 77 74 a4 bc
       0.048507515 0.14376935 0.08781512 -0.020075066
000040 fb bb 78 3d 64 d9 1a 3e 09 2c 78 3d 51 e4 5c 3d
       0.060726147 0.1512199 0.06058887 0.053928677
000050 e7 37 0a 3e 95 cd fb 3d 76 0e 6c 3c 32 32 2d 3d
       0.13497888 0.12295071 0.014407745 0.042284198
000060 23 7b 26 bd d7 22 01 3e 1a c0 28 3d ea 52 0d 3c
       -0.040644776 0.12610947 0.041198827 0.008625725
000070 9b dc ee 3d 23 0b 73 3e e1 cd 77 3d 1f 15 d3 3b
       0.11663171 0.23734717 0.060499076 0.006441727
000080 be 27 11 3c 43 b5 a6 3d 2d f8 80 bc 5d f1 ba bc
       0.008859573 0.08140042 -0.01574334 -0.02282017
000090 fe 1d 91 bd b8 3d 1e 3e a2 77 73 bd aa ef bd 3d
       -0.07085799 0.15453231 -0.059440263 0.09274228
0000a0 89 e1 d0 3c 7a 84 c4 bd 9d 01 d9 3d a0 8c db 3d
       0.025498169 -0.095955804 0.10596011 0.107201815
0000b0 63 56 09 3e e2 9f f5 3d fa 70 82 3d e9 5d d6 3c
       0.1341186 0.11993386 0.06369205 0.026167827
0000c0 90 ae b0 3d 9c e4 64 bd e0 9a f2 3d f8 69 f3 3d
       0.08627045 -0.05588208 0.11845946 0.11885446
0000d0 36 7f 53 3d b8 cf 19 3e 24 b9 d4 3d 87 23 78 bd
       0.05163499 0.15020645 0.10386875 -0.060580757
0000e0 0d b1 a6 bd f7 45 16 3e 5e 5b 3f bd b9 bd 1c bd
       -0.081392385 0.14675127 -0.046717994 -0.03826687
0000f0 24 20 29 3d 93 cf 12 bd 82 b4 33 3e 89 04 67 bd
       0.041290417 -0.03584249 0.17549327 -0.05640081
000100 0d c7 d7 3d 63 04 08 3e f9 b8 05 bd 00 ae 8a 3d
       0.10536013 0.13282923 -0.032647107 0.06771469
000110 df 5c b1 3c ed f6 f0 3b 57 1e 42 3d 07 42 a2 3a
       0.02165073 0.0073536546 0.047392216 0.0012379297
000120 24 df b0 ba f8 15 1a 3e 9a 53 9d 3c 76 36 b9 3c
       -0.0013494235 0.15047443 0.019204903 0.022608977
000130 3c da 71 bd d6 ac 59 bc 19 7a 5f bd 03 ac af bd
       -0.059046015 -0.013285836 -0.0545598 -0.085777305
000140 0a 7a d8 bc 70 de fe 3c f9 31 17 3c 15 3a 7a 3c
       -0.02642538 0.031111926 0.009228223 0.015272637
000150 c4 0f 16 3e 10 92 94 3b ef ad f1 3d 7c 4f c9 bd
       0.14654452 0.0045340136 0.11800753 -0.098296136
000160 78 9a 3b bb 2f 63 ae bd b3 cc 25 bd ef 40 02 3e
       -0.0028626006 -0.085150115 -0.04047842 0.12720083
000170 bf 13 ae 3d 27 26 b0 3b 55 3d a2 3d 1b 4a 22 bd
       0.0849986 0.005375642 0.079218544 -0.039621454
000180 e3 a7 79 bd ce cf e3 3d ec 93 0e 3e 79 ac 8a bd
       -0.060951125 0.1112362 0.13923615 -0.06771178
000190 5a ab 8b bd c0 47 ad 3d 9b e0 03 3e 43 6e 38 3d
       -0.06819792 0.08460951 0.12878649 0.04502703
0001a0 5b 0e a3 bd 08 29 af bd f8 66 80 bd ca 98 9f 3c
       -0.079617225 -0.08552748 -0.0626964 0.019482035
0001b0 7c d2 af bd 7b fe 0a 3c 39 dd 1d 3e 5f 2c c7 bc
       -0.085850686 0.008483524 0.15416421 -0.02431315
0001c0 ea 47 01 bd af 86 63 bd da 84 26 3d 13 6b eb bd
       -0.031562723 -0.055548366 0.04065404 -0.11495032
0001d0 63 96 d5 3d a2 be a5 3d 70 bf 74 bd 85 02 9c bd
       0.104290746 0.08093001 -0.05975288 -0.07617668
0001e0 44 9d ba 3d 0f 48 96 bd 13 70 0d 3e ff 19 ab 3d
       0.09112027 -0.07337963 0.13812284 0.08354568
0001f0 ad 19 b9 3c e0 a4 03 3e ad 23 b0 3d 36 e9 0f 3c
       0.022595251 0.12855864 0.086005546 0.008783629
000200 a6 f6 dd 3c b6 96 a9 3d e1 09 3e 3c c4 24 b2 bd
       0.02709515 0.08280699 0.011599035 -0.08698419
000210 fb 0e ed bc cc fb 8c bd a0 ec 44 bd 38 0e d3 bc
       -0.028937807 -0.06883964 -0.048077226 -0.025763616
000220 3a 45 bc 3c c8 c6 a0 bd 6b 1d 8d 3c a1 b8 2e 3d
       0.022982229 -0.078504145 0.017225942 0.042656545
000230 f5 58 34 3d 68 5e b8 bb 8d 4c b1 bd 2f c5 ae 3d
       0.04403015 -0.0056264885 -0.08657179 0.085337035
000240 85 eb 4b 3d 88 04 35 bd 4e 48 88 3d 5c 18 10 bd
       0.049785156 -0.044193774 0.06654416 -0.03517948
000250 bb ef 06 be 9f c9 f6 3d ee cd 81 3d 67 f0 6b 3d
       -0.13177387 0.12050175 0.06338106 0.057602312
000260 fe ae d2 bc 9f 99 c0 bb 13 b4 96 3c 2c d0 5b 3c
       -0.025718208 -0.005877688 0.018396413 0.013416331
000270 e5 7c 00 3e b8 25 87 bd f9 c6 f9 3d 33 ca fa bd
       0.12547643 -0.06598991 0.12196154 -0.12245598
000280 93 35 9b 3d 60 a8 67 3d 35 04 cf 3d 91 17 39 bd
       0.07578578 0.05655706 0.10108224 -0.04518849
000290 a7 bf 1b bd 78 7c 49 bc af 95 c5 3d 7d c2 94 3c
       -0.03802457 -0.012297742 0.096476905 0.018159145
0002a0 70 47 e2 3d 79 7c 0a be 4e 7d ac 3c a0 e2 61 3c
       0.11048782 -0.13524045 0.021055844 0.013786942
0002b0 e8 82 f4 3c ff 5e a0 bc 30 2c 72 3d 52 a5 2c 3d
       0.029847577 -0.019576548 0.05912417 0.04214985
0002c0 26 ee 59 3d d6 9c a9 3c 82 0b ff 3d af 8c ef bd
       0.05320563 0.020704668 0.12453367 -0.11696755
0002d0 1a a4 b7 bc 54 ec 2e 3d 98 9b 7e 3c 6e 59 83 3d
       -0.022417117 0.04270585 0.015540026 0.06413542
0002e0 4f bf 08 bd b4 82 24 bd 0a 9c 65 bd a8 cd 7f ba
       -0.03338557 -0.04016371 -0.056057014 -0.0009758123
0002f0 42 7e d8 bc bc 85 fc bc 6a de 65 3b dc f4 e6 3d
       -0.026427392 -0.030825488 0.0035075196 0.11277172
000300 db 14 86 bc 21 8e 44 bc 84 d8 1e 3e 18 b2 fc 3d
       -0.016367367 -0.011996777 0.15512282 0.12338656
000310 cc 9a 03 bd cd 7c ef 3d 5d 40 66 bd 6a 34 99 3d
       -0.032130048 0.11693726 -0.056213725 0.074807
000320 3d bc c8 bc bb 31 01 3d 1b c1 00 3d aa 18 8b 3d
       -0.024503822 0.031541567 0.03143416 0.06791814
000330 0d bf ce 3c 05 32 dc 3d e4 bf 85 3d 71 b2 e5 3d
       0.025237584 0.10751728 0.06530741 0.112156756
000340 25 92 f6 3d bc 05 17 bd 6b 72 07 3e 78 4e a3 3d
       0.120395936 -0.036870703 0.1322724 0.07973951
000350 d8 a8 08 3e 12 61 0d 3e 03 5a f3 3d 55 da a1 bc
       0.13345659 0.1380656 0.11882403 -0.01975743
000360 16 27 1e 3e 09 e3 c9 3d 02 ec 26 3e 17 98 86 bd
       0.15444598 0.09857757 0.16300967 -0.065719776
000370 8b be 5f 3d 6b b3 68 3d 05 9c 38 3e f4 15 15 3e
       0.054625075 0.05681173 0.18028267 0.14559156
000380 e4 09 2b bd 20 e4 62 3d 37 fb ba 3b 60 36 37 bd
       -0.04175748 0.05539334 0.0057062167 -0.04472959
000390 0b c7 81 bb 10 5d 1f 3e 37 d8 9c 3d c4 b8 2a 3e
       -0.0039604953 0.15562844 0.07658427 0.16672045
0003a0 90 ef cf 3d 84 28 af bc cd 62 83 bd 3d d3 fc 3c
       0.10153115 -0.021381624 -0.06415329 0.030862445
0003b0 8d 22 6c 3d 54 78 2a ba ea 9d 9a 3c f3 8b b0 3d
       0.057650138 -0.00065029156 0.018874127 0.08620443
0003c0 b5 6f 86 bd ba 4e 16 3e 55 1d b7 bd e4 6e 61 bc
       -0.06564275 0.1467847 -0.089411415 -0.013759349
0003d0 11 4e a2 3c eb 5c de 3d 61 d7 3c 3d 8a 84 78 3d
       0.019812616 0.108575664 0.04610384 0.060673274
0003e0 17 46 9e 3d b2 6c c8 3d 43 7a f4 3d f6 03 4e bc
       0.07728212 0.09786357 0.11937382 -0.012574187
0003f0 9a 62 d0 3d 4e 44 30 bb 4e 93 87 3d 20 e8 35 bd
       0.10175057 -0.0026896182 0.06619893 -0.044410825
