model/knowledge_system/artifacts/benimellal/best_lstm_model.pt (torch, 239271 bytes, 10 tensors)

lstm.weight_ih_l0 f4 [256, 22]
000000 c0 15 48 be ee 5e 6f be 72 09 fd bd 76 f7 c6 3d
       -0.19539547 -0.23376057 -0.12355317 0.09715168
000010 c0 db db 3d 7a ed 26 3e 08 20 31 3e 1d d3 bf bd
       0.10735273 0.16301528 0.17297375 -0.093664385
000020 b0 61 6e 3d 5f a8 6f 3d dc 11 0f 3d 10 90 d3 bc
       0.05819863 0.05851018 0.03492914 -0.02582553
000030 fd 2b ad bb aa 92 6e 3e f1 a4 01 be ea 79 91 bd
       -0.005284785 0.23298135 -0.12660576 -0.071033314
000040 5d 93 9e 3d 46 9f 4b bb e1 11 e5 bd e3 23 05 bc
       0.07742951 -0.0031070276 -0.11185051 -0.008126232
000050 63 66 14 bd 99 0c e3 bd 30 dc 35 bd 24 fb 41 bd
       -0.036230456 -0.11086387 -0.04439944 -0.047358647
000060 5b f2 83 bd fa 1d 57 bd 0f 91 15 3b 0f 7f 06 bd
       -0.0644271 -0.052518822 0.0022822057 -0.032836016
000070 22 d1 c9 3d a5 6c 03 be 94 55 77 3d 66 6d 29 bc
       0.09854342 -0.12834413 0.060384348 -0.010341024
000080 02 2f 37 3a 7a 88 a9 3c bc 80 be 3d 47 d6 4f bd
       0.00069879007 0.02069496 0.09301898 -0.05074146
000090 7c 56 88 be c8 74 d5 bb d0 a7 73 be 9e c9 9f 3d
       -0.26628482 -0.0065141656 -0.23794484 0.07802127
0000a0 83 4c 5a bb 66 d0 ea bd e0 47 e1 bd 74 d9 18 bd
       -0.0033309765 -0.1146553 -0.11000037 -0.037316754
0000b0 67 c5 87 3d c3 4e 9d bd 42 8b 62 bd 1e ba c3 3d
       0.066294484 -0.07681038 -0.055308588 0.095569834
0000c0 b8 0b 3a 3d 02 5f de bd 46 77 a1 3d b8 63 9e bd
       0.045421332 -0.10857965 0.07884078 -0.077338636
0000d0 15 05 ee 3d 87 b0 ea bc fd 82 10 3e 14 c3 93 bd
       0.11622063 -0.028648628 0.14112468 -0.072149426
0000e0 74 1b a3 bc b4 33 17 3e 41 7c 01 bd 9d e9 6e 3d
       -0.019910552 0.14765817 -0.03161264 0.05832826
0000f0 a6 09 58 bc 13 de 82 bc 16 e1 a0 3d c4 69 3e be
       -0.013185894 -0.015975034 0.07855432 -0.18595034
000100 28 c6 8e 3d 79 6d e7 bc 1c 49 84 3d 6f 7e de 3d
       0.06971389 -0.028250443 0.06459257 0.10863959
000110 ca 6e 08 3e 20 7d aa bd b2 7b 5b 3d 44 91 03 3d
       0.13323513 -0.08324647 0.053584762 0.032120958
000120 78 22 14 3e 37 18 15 bd 05 1f a8 bd ff 33 f7 bc
       0.14466274 -0.036400046 -0.082090415 -0.03017616
000130 76 cd e3 3d 8c 89 6f bd 6e c8 b9 bd 00 b5 0b bd
       0.11123173 -0.058480784 -0.09071432 -0.034108162
000140 59 c5 cf 3c 66 57 2c 3d 44 fe d4 3c 7a d7 a8 bd
       0.025362657 0.042075537 0.02600015 -0.08244224
000150 7c cc c7 3c ab c3 1d 3d 35 64 17 3d 9f 1b c6 3d
       0.024389498 0.03851668 0.0369608 0.09673237
000160 63 35 be bc 35 f5 84 3c 30 73 1c 3d 4d 3d 09 3c
       -0.023218816 0.016230205 0.03819579 0.008376432
000170 0e 21 bf bd 8a 19 36 bd b3 69 e8 bc 8f 43 d3 bd
       -0.093324766 -0.04445795 -0.028370714 -0.1031562
000180 9e 19 c3 bd 5a 28 b3 bc a0 01 bb bd 9f 7a f3 bc
       -0.095263705 -0.021869827 -0.09131169 -0.029721556
000190 24 f8 94 3d f7 46 0b 3e 37 c8 00 be 4d 77 bb 3d
       0.072738916 0.1360129 -0.12576376 0.09153614
0001a0 5f 70 25 bd 63 52 82 bc 19 e3 b3 3d 85 66 48 3d
       -0.04039037 -0.015908426 0.0878355 0.048925895
0001b0 9e 82 7b bd 64 11 96 bb 37 c9 6b 3d 07 f2 2a 3d
       -0.061403863 -0.00457971 0.05756494 0.04173472
0001c0 43 e2 67 bc 6e 7b 7b 3d 7a 41 2a 3d e7 5d 7d bd
       -0.014153066 0.06139701 0.04156635 -0.06185713
0001d0 13 d8 fb 3d 16 5e d5 3c 57 8a 14 3c 71 2a 11 3d
       0.12297072 0.02604584 0.009066186 0.035440866
0001e0 a7 6c 1f be bd 23 1c 3d bf a1 b9 bd c3 37 0a 3e
       -0.15568791 0.03812002 -0.09064054 0.13497834
0001f0 48 57 4a bd 2f 25 33 3d 57 2b 39 be 9c 0c 2a bd
       -0.049399644 0.043736633 -0.18082939 -0.04151593
000200 70 de cc bd f7 e7 f3 bc 05 16 d4 bd 4f c5 67 3d
       -0.10003364 -0.029773695 -0.103557624 0.056584653
000210 2b 0b 9e 3d 22 5c 9e bd d9 75 a6 bb 5a e5 c2 bd
       0.07716974 -0.07732417 -0.0050799665 -0.095164016
000220 1d 99 2e 3a 2b 2d f1 bb a7 18 bb 3d 37 5d e5 3c
       0.0006660389 -0.007360121 0.091355614 0.02799855
000230 16 22 91 bd f6 7a f8 bd ce 55 b2 3d 2f 5a 49 3d
       -0.070865795 -0.12132828 0.08707772 0.04915827
000240 41 b3 2c 3a ac 42 7a 3d 7c f8 3a be 08 6f 19 bd
       0.000658799 0.06109874 -0.18258852 -0.037459403
000250 68 7c 9b 3d ce 7e eb bd 6e f0 b7 bd 0b 8a ea bd
       0.07592088 -0.114987954 -0.08981405 -0.11452111
000260 f8 64 8e 3b 47 bb 43 3d 03 29 f0 bb 30 64 6e bd
       0.0043455325 0.047786023 -0.0073291077 -0.058201015
000270 9f 12 62 bd 40 ce 65 bd d9 4e 3d 3e e5 2e e6 bd
       -0.05519354 -0.0561049 0.18487109 -0.11239413
000280 2b ed 14 bd 3c 90 0c be 4a d1 2f 3d 18 76 4d bd
       -0.036358994 -0.13726896 0.042924203 -0.05016145
000290 e5 21 d6 3d e8 b5 a7 bd f8 b1 53 3d b6 28 0e 3d
       0.104556836 -0.08188993 0.051683396 0.034706794
0002a0 d1 3d d4 3d 73 ec 85 bd d3 b1 be 3d 04 e3 a3 3d
       0.10363353 -0.0653924 0.09311261 0.08002284
0002b0 29 3e 0d be 2a cf 82 bd 19 b0 24 3d bd a8 17 3d
       -0.13793243 -0.0638717 0.040207002 0.037026156
0002c0 9b d4 a4 3d 8b a8 b0 3d f7 69 f4 3d 14 e7 69 bd
       0.08048364 0.08625897 0.11934274 -0.05710514
0002d0 21 b2 a8 3d 4f a1 7e 3d c5 92 8c bd 77 f4 96 3d
       0.082371004 0.062165555 -0.068639316 0.07370847
0002e0 d1 d5 e3 bd 62 a2 b1 bc 6d 49 e4 bc 2d 12 0c 3d
       -0.111247666 -0.021683875 -0.027867043 0.03419702
0002f0 ff ac 0c be 6c 61 9b bb bf 9a 2f be 1c c8 30 3d
       -0.13737868 -0.004741838 -0.17148875 0.04315959
000300 60 67 83 3d d5 8c ce bd 3c e5 7f 3d 35 77 db 3c
       0.064162016 -0.10085455 0.062474474 0.02679024
000310 d1 f1 fe 3d e9 dd 8d bd 77 e5 ce 3d 1f 65 93 bd
       0.124484666 -0.06927092 0.10102361 -0.07197022
000320 39 f4 0a bd a9 4f b4 bd b5 b0 04 bc 89 97 99 3d
       -0.033924315 -0.088042565 -0.008098771 0.07499606
000330 3b ca 94 3d 20 4f 68 bc 16 1d a8 bd 0e b4 86 bd
       0.07265135 -0.014179021 -0.08208673 -0.065773115
000340 68 26 04 3e 6f ac b9 3d 8b 4a 0d 3d 6e 3e 0a 3e
       0.12905276 0.09066092 0.034494918 0.13500378
000350 57 2d 7e bc 13 61 c2 bd c2 82 62 3d 1a 8f 1a be
       -0.01551374 -0.09491172 0.05530048 -0.15093651
000360 d9 1d 2c 3c 79 26 3c be 30 f2 3d bb 4c 58 82 bd
       0.010505163 -0.18374051 -0.0028983466 -0.063644975
000370 14 6b 9e bd c5 84 7e bc 2c fb cd 3d 6f 7b f6 bc
       -0.07735267 -0.015534584 0.10057673 -0.030088155
000380 70 8b b8 3d 90 34 e9 bd f6 29 4c 3d 5d 92 ce 3d
       0.090109706 -0.113869786 0.049844705 0.1008651
000390 9b 30 99 3d c4 0d ea 3c 6a 64 8a 3d f9 02 70 3d
       0.07479974 0.028571017 0.06757434 0.058596585
0003a0 5d 61 c3 3c a4 c8 1d 3e ac 3a 57 3d d6 1c b8 bc
       0.023850137 0.1540857 0.05254619 -0.022474688
0003b0 24 ee df 3d 03 c4 37 3c b5 6d 91 be bb 02 05 3e
       0.109340936 0.011216166 -0.28404012 0.12989323
0003c0 98 92 b3 3d 03 e5 4b bd 1d 1f 43 bd 7f f0 c0 bd
       0.08768195 -0.04977895 -0.047637094 -0.09420871
0003d0 7f 16 b5 bd 90 70 37 3d 52 b6 07 3e 4e 66 09 3e
       -0.088421814 0.044785082 0.13253143 0.13417932
0003e0 4e a0 18 3e 77 28 f6 3d 2c 05 ba bd 90 ae 49 3d
       0.14904901 0.12019437 -0.09083018 0.04923874
0003f0 d3 4e cf bd 5d 0c 92 3d fe 58 62 3d eb a1 bd 3d
       -0.101224564 0.07131264 0.05526065 0.09259399

lstm.weight_hh_l0 f4 [256, 64]
000000 89 b8 73 bc 2d ed 4e bc 0a 7d 5b 3d b9 98 bf 3d
       -0.01487554 -0.012629789 0.053586043 0.093553014
000010 54 06 b8 3a c2 7c 27 bd 26 45 d1 3c 5c 5c 26 3d
       0.0014039972 -0.040890463 0.025545668 0.040615425
000020 46 87 d6 bd 26 e2 ab bb c4 54 85 3d 62 a2 44 bd
       -0.1047502 -0.005245465 0.065103084 -0.048006423
000030 4b 16 b4 bd 9b 8c ad 3c 04 a8 00 3c 24 db 28 3d
       -0.087933145 0.02118521 0.007852558 0.041224614
000040 aa eb 1f bc 95 76 39 3e 31 68 09 bd 64 3f f8 bc
       -0.009760777 0.18111642 -0.03354663 -0.030303665
000050 93 3e f5 3d 5b 8b 73 bb 61 f4 9c 3d 18 f9 9f 3d
       0.11974826 -0.003716192 0.07663799 0.07811183
000060 de 64 e5 bc fc 29 80 3d ca 21 5b bc 6e 45 54 bd
       -0.028002199 0.06258008 -0.013374755 -0.051824026
000070 37 8c 54 3c ca fb 4d bd 5f 93 78 3d eb da eb bd
       0.012972883 -0.050288953 0.06068742 -0.11516365
000080 34 b5 bc 3c 2e 98 08 3d 87 b6 dc bd e7 13 86 bd
       0.023035623 0.033348255 -0.10777002 -0.06546765
000090 75 5a 81 3d 61 2a 99 3d fe bd 1b 3e 2e 1f 23 3d
       0.063160814 0.07478786 0.15209195 0.039824657
0000a0 86 c0 04 be 96 f3 07 3e fb ed 22 bd bd f9 08 3e
       -0.12964067 0.13276514 -0.039777737 0.13376518
0000b0 a5 4d 2c 3d 72 c1 39 bc 03 40 51 bd 34 90 2e be
       0.042066235 -0.011337625 -0.051086437 -0.17047197
0000c0 b4 03 14 bd e5 88 47 3e 3b 5d 06 bd e5 bf b2 3d
       -0.036136344 0.19485815 -0.032803755 0.08728007
0000d0 e4 4b 73 3d 00 cb fd 3c 14 4f 12 3e fd 18 1b 3c
       0.059398547 0.030980587 0.14287978 0.009466407
0000e0 59 71 85 bd 0b bf 1c be 90 2f 25 3d 28 0d 31 3d
       -0.0651576 -0.15307252 0.040328562 0.043225437
0000f0 5f 9b 2b be aa 04 14 be 1c ef 0b 3e 15 e1 0e 3d
       -0.16758488 -0.14454904 0.13665432 0.034882624
000100 dd 6f be bc e0 20 24 3c 48 44 b4 3d 2f 6b 31 be
       -0.0232467 0.010017604 0.08802086 -0.17326044
000110 ae 2c b2 bc 77 78 9c bb 92 d6 8c 3d 9c aa 90 bd
       -0.02174982 -0.0047751027 0.068768635 -0.07063791
000120 88 8a b9 bc 37 d3 8c bd c5 c8 b3 bd cf 64 57 bd
       -0.022649065 -0.068762235 -0.08778528 -0.052586373
000130 99 03 09 3d 74 67 a4 bd 62 38 9f bd 34 54 6f bd
       0.033450697 -0.080275446 -0.07774426 -0.05842991
000140 ef b9 3e bd ef ac 35 3e d7 15 14 bd ad 84 2e be
       -0.04656404 0.1774175 -0.03615364 -0.170428
000150 27 4c 47 3d 56 c4 30 bc 93 9f 01 bd f0 d2 7a bc
       0.04865661 -0.010788998 -0.031646322 -0.0153090805
000160 6c 26 ce bc 16 03 52 bd 5a 67 a5 bd 43 5b 83 3d
       -0.025164805 -0.051272474 -0.08076353 0.06413891
000170 b5 95 a8 3c 3d b1 90 3d bf 29 35 3d 8b 2e 36 bd
       0.020579198 0.070650555 0.044229265 -0.04447798
000180 1c ec 6b 3d 6e 46 13 3e ed c8 b5 3d 25 0c 86 bd
       0.05759822 0.14382336 0.08876214 -0.06545285
000190 f1 31 ff bd 18 fe d2 3d be 8d dc 3d 93 58 44 be
       -0.124606974 0.10302371 0.10769223 -0.19174413
0001a0 22 a7 ad bb f0 7a 52 3c 83 58 8b bd 0f 1a 7a bc
       -0.005299465 0.012846693 -0.06803992 -0.015265002
0001b0 71 22 4e be 39 b2 8d bb b4 2d a8 bb c8 60 2a be
       -0.20130326 -0.0043242243 -0.0051324014 -0.16638482
0001c0 a6 37 fa bd de a4 f9 bd c6 eb 82 bd 4a 14 47 bd
       -0.12217645 -0.12189649 -0.063926265 -0.048603334
0001d0 63 63 87 3d 87 b3 dc 3d c4 da 7f 3d ae ed f0 bc
       0.066107534 0.107764296 0.06246449 -0.02941021
0001e0 cb 5a b9 bd 5a 29 9d bc 57 7b c5 3c 5f 15 ad 3d
       -0.090505205 -0.019184757 0.024106665 0.08451342
0001f0 59 0e 8b bd e4 68 a3 bd 70 20 b7 3c f0 b0 1a bd
       -0.06789846 -0.07978991 0.022354335 -0.037766397
000200 5e ea ea bd d0 a5 73 bc db b8 e4 bd fd 2d b7 3d
       -0.11470483 -0.014871076 -0.11168071 0.089443184
000210 dd 62 2b ba da af ee 3d 88 a6 22 bd ec ab 03 be
       -0.0006537864 0.11654635 -0.039709598 -0.12858552
000220 c8 eb bf bc 99 3f 28 3d c4 da 99 bc 91 58 0d bd
       -0.023427859 0.041076276 -0.018781073 -0.03450829
000230 be 45 5c 3d 90 5c 99 bd 96 8d a2 3d df a5 24 bd
       0.05377745 -0.07488358 0.079371616 -0.04019725
000240 e8 35 f4 3d fe 35 0e 3c 30 58 ed bd cc 13 c0 bd
       0.11924344 0.008679865 -0.11589086 -0.09378776
000250 4b 8e da bd 9d d3 dc bc 36 52 b4 bb 3d fd c0 3d
       -0.106716715 -0.026956374 -0.0055029644 0.09423301
000260 63 6c 8f bd 19 4f 98 3c ef 53 a7 3d fb 98 54 bd
       -0.07003095 0.018592404 0.08170306 -0.051903706
000270 70 ec 02 be f5 05 67 bd 7b ad b9 3d 4c 9f e8 bd
       -0.12785506 -0.056402165 0.09066292 -0.113585085
000280 a3 2e a6 3d c5 90 f2 bd ae 5a 77 3d 19 bf 37 3c
       0.08114364 -0.11844019 0.060389213 0.011214995
000290 39 09 ef 3d d7 58 db 3d d4 c2 09 be 9d c0 32 3d
       0.11671681 0.10710304 -0.13453227 0.04364072
0002a0 09 df 8b 3c 7f 62 6b 3d 11 89 64 3c ee 3c bf 3c
       0.017074125 0.05746698 0.013948695 0.023344483
0002b0 c5 55 d8 bc ae 0c 76 3d b0 7a 22 3d b2 68 8f 3d
       -0.026408086 0.060070686 0.039667785 0.07002391
0002c0 e0 f6 40 3d 0b cb 86 3d f1 3e 94 bb 41 59 68 3d
       0.04711044 0.06581696 -0.0045241048 0.056725744
0002d0 7c 3d 2f bd 50 a5 81 3c a9 c4 15 bc cd 56 07 3e
       -0.042783245 0.015825897 -0.009141126 0.13216706
0002e0 c2 f2 76 3d 0a e0 26 bc 39 a5 b5 3b 4c 7d cb bd
       0.060290106 -0.010185251 0.0055433777 -0.09936008
0002f0 87 b5 47 3d 8d 58 f8 bc 2e e5 c9 bb 42 ef 96 bd
       0.048757102 -0.030315662 -0.0061613536 -0.073698536
000300 ab e1 16 be aa c0 0a be 88 df bd bd 2b 40 46 bd
       -0.14734523 -0.13550058 -0.09271151 -0.04840104
000310 a4 34 7a 3d 13 07 4a 3d 87 5d 61 3d 38 f2 d9 bd
       0.06108536 0.049323153 0.055020835 -0.10641903
000320 70 aa 08 be 20 9e c1 3d 1d 3c a3 3d 96 3f 02 be
       -0.13346267 0.09453988 0.0797045 -0.12719569
000330 84 96 1a bd 3a aa 94 3d bd d7 84 3d 9a 82 6c 3c
       -0.0377412 0.07259031 0.06486461 0.014435435
000340 a9 a9 6e 3d 9c 59 f8 3d 72 be 9a bd 9e 62 1c be
       0.05826727 0.12126467 -0.07555856 -0.15271994
000350 bc 07 be 3d 01 af d8 bd 52 95 c8 3d 05 46 c1 3c
       0.09278819 -0.10580254 0.097941056 0.023592958
000360 85 48 96 3c 97 b2 a8 bb c7 85 bf bd dc 7c f3 3d
       0.018345127 -0.0051482427 -0.09351688 0.118890494
000370 2a fc 79 3c 00 1c 57 bc 8c 1d e3 3d 35 29 8c bd
       0.0152578745 -0.013129234 0.1108962 -0.06843797
000380 05 3b 78 3d 02 bf c7 bd 35 5b ae 3d ab e2 2c bc
       0.06060316 -0.09753229 0.0851349 -0.010552089
000390 d0 30 9e bd ec 66 3b bd b6 ca 81 bc 4c 7f c0 3d
       -0.07724154 -0.04575245 -0.01584373 0.0939928
0003a0 e2 04 63 bd ff 73 a5 3d ae a1 a7 3d 77 16 96 3c
       -0.05542458 0.08078765 0.08185135 0.018321259
0003b0 4e 2f fe bb 50 0f eb 3d ba de cb bc 34 00 ad 3d
       -0.007757104 0.1147753 -0.024886478 0.08447304
0003c0 c6 3c 98 3c 08 37 a0 bd 4c d8 cb bb 51 4a ec 3d
       0.018583667 -0.078229964 -0.006220853 0.11537612
0003d0 b1 f5 7f bd 07 ef 9f 3d 36 4f 45 bd 71 ee ec 3d
       -0.06249017 0.07809263 -0.048171245 0.115689166
0003e0 5c 90 5b bd 1b c8 cc bd ba d6 84 3c 6e 0f a4 3d
       -0.05360447 -0.099991046 0.01621567 0.080107555
0003f0 d3 83 9f 3b 78 53 4c bd d4 e8 f3 3d 0f 34 f6 3d
       0.0048680096 -0.04988429 0.11909643 0.12021648

lstm.bias_ih_l0 f4 [256]
000000 2d 97 0e 3d 1c c8 a6 bc de a7 a9 bd 84 44 a9 bc
       0.03481214 -0.020359091 -0.08283971 -0.020662554
000010 f1 81 4a bc e2 15 8e bc 2f 8a e4 3d 8c 08 0d 3e
       -0.012360082 -0.017344419 0.11159169 0.13772792
000020 1c ea b8 3c 79 db e9 3d fb d8 78 3d e3 0f 53 3a
       0.02257257 0.11418814 0.060753804 0.00080513785
000030 ca 53 54 bd c6 a5 a3 3d c9 ef 26 3c c8 b2 55 3d
       -0.05183772 0.07990603 0.010189005 0.052172452
000040 ba 5e 9b 3d 30 44 11 bd 43 25 35 3e 63 94 61 bd
       0.07586427 -0.03546542 0.17689995 -0.055073153
000050 78 0a b5 bd 5e 45 3d bd 42 41 f4 bc 8a 24 22 3d
       -0.088398874 -0.04620873 -0.029816274 0.039585628
000060 5c a2 8e 3d 2b 05 3e bd da 4b 97 bd f1 71 92 3d
       0.06964561 -0.046391647 -0.073875144 0.07150639
000070 a4 8f ee 3d 15 65 d6 3d 5d f1 a3 bc 5c 87 cf 3c
       0.11648491 0.104684986 -0.020012552 0.025333099
000080 c5 4c 99 3d 77 ac b0 3d ba ae e7 3d 19 84 8c bd
       0.07485346 0.08626645 0.11312623 -0.06861133
000090 67 0c 16 3d a7 6c d9 3d 12 fc 94 bc 98 9b 74 3d
       0.03663292 0.10616427 -0.018186603 0.0597187
0000a0 a2 af 0f 3a 74 20 a0 bd 2d d6 3c 3e 93 0e fb 3d
       0.00054811884 -0.0781869 0.18441077 0.12258639
0000b0 a6 65 c7 3d 56 ce 89 3d 62 ce bc bc e9 51 32 3e
       0.09736185 0.067288086 -0.02304763 0.17414059
0000c0 6b 3d c5 3c af d2 6b 3b 1f 22 9f bd b3 bd 87 bc
       0.024077138 0.0035983732 -0.0777018 -0.016569948
0000d0 66 f7 4f 3d a7 b4 b4 bd a8 32 f6 3d 5e 89 12 3d
       0.050773047 -0.08823519 0.12021381 0.035775535
0000e0 da cd c8 3d ac ef 89 3e 76 6b 6b bc ba 1c 58 3d
       0.09804888 0.26940668 -0.014368882 0.05276177
0000f0 77 74 fa 3d 83 05 9c bd 95 43 45 bd 44 37 00 3e
       0.12229245 -0.07618239 -0.048160154 0.12521082
000100 b7 b2 1f 3d 21 25 f6 bd 33 4c bf 3d 27 49 0f 3e
       0.038988795 -0.120188005 0.09340706 0.13992749
000110 7e d9 29 bd f0 d1 81 bd 16 db 9d 3d 53 28 8b bd
       -0.041467182 -0.063388705 0.07707803 -0.067948006
000120 7a 1c f2 3d c7 fb 07 3e f7 3d b6 3d 52 8f ac bc
       0.11821838 0.13279639 0.088985376 -0.021064434
000130 dd 2e 58 3c 96 cf 81 bb 87 1d f3 3d 27 1a 82 3a
       0.013194767 -0.0039615138 0.11870866 0.0009926007
000140 36 5e 87 bd 98 c3 8d bd 88 63 1c bd 17 4c 5a 3c
       -0.06609766 -0.06922072 -0.038180858 0.013323805
000150 22 4a 17 3e 15 4b 64 3d 48 a8 7e 3c ec 96 da 3d
       0.14774373 0.055735666 0.015543051 0.10673317
000160 e0 3b 4c bd bd f4 f7 bb 75 bc 14 3d ec 0a cf 3c
       -0.04986179 -0.007567017 0.03631254 0.025273763
000170 7d 51 4a 3d 0d a2 62 3d 4c 12 84 3d c0 e1 13 3d
       0.04939412 0.055330325 0.06448802 0.036103964
000180 d8 2a 29 3d 6b 3c 09 3e 14 85 11 3e 0e 66 e0 3d
       0.041300625 0.13401954 0.14210922 0.109569654
000190 ef 82 9f bc 5a 66 d5 3c 91 a4 e1 bd b5 cd dd 3d
       -0.019471614 0.026049782 -0.11017717 0.10830251
0001a0 2e 63 dc bd 34 7a d0 bd a3 db 40 3e d0 4f a2 3c
       -0.107611045 -0.101795584 0.18833785 0.019813448
0001b0 ca ff 50 3e 73 31 c3 bc c8 11 36 3d ea 59 80 bc
       0.20410076 -0.02382729 0.04445055 -0.015667874
0001c0 2e bc 10 3d c1 99 a7 bd 6d ff a8 bd f5 2b a7 bc
       0.035335712 -0.08183623 -0.082518436 -0.020406703
0001d0 5d eb 98 bc 2a 11 50 3b d1 08 13 3e 5b 7b ee 3d
       -0.018666917 0.0031748512 0.14358832 0.11644622
0001e0 6b a8 dd bd 6e 3a 99 bc 0e 66 34 bd 2f 7d 02 3e
       -0.10823139 -0.01870462 -0.04404264 0.12743066
0001f0 06 a6 5b bd 3e 50 c0 bd fd d7 49 bd 00 ac 71 bd
       -0.05362513 -0.09390305 -0.049278248 -0.059001923
000200 8b a7 80 bd 24 4b 65 bd 15 29 dc 3d 7c ef 20 3d
       -0.06281956 -0.055979863 0.10750023 0.03929089
000210 fa 12 d4 bc 62 bb df bd 70 c2 98 3d a6 73 ab bc
       -0.025887955 -0.10924412 0.07458961 -0.020929169
000220 cc b4 a3 3d 94 c7 76 3d 6d 4f b0 bd 40 d3 a6 3c
       0.07993469 0.060248926 -0.08608899 0.020364404
000230 32 42 e2 bd 15 04 09 be fe d1 38 bd 3d 1b b6 3d
       -0.11047782 -0.13380463 -0.04512214 0.08891914
000240 30 d8 ec 3d 58 79 3d 3d c0 84 e7 3d 10 83 bd bd
       0.11564672 0.0462583 0.11304617 -0.09253514
000250 09 07 37 3c d8 9c 84 bd f4 14 05 3c 54 46 70 bd
       0.011171111 -0.06475228 0.008122671 -0.05866082
000260 4a 9b ac bd 2a 8a bb bd 69 97 9a bd d2 9b f5 3d
       -0.084280565 -0.09157212 -0.075484104 0.11992611
000270 fc 41 74 3d be 80 05 be 89 95 b6 bd 99 5d 5e 3b
       0.05963324 -0.13037392 -0.0891524 0.00339303
000280 5a 97 81 3d 35 26 95 3d 41 58 8e bd 48 17 08 bd
       0.06327696 0.07282678 -0.06950427 -0.033225328
000290 c2 5f 7a 3d 86 0a 8d bc 7f 69 c4 3d ba 16 cb bc
       0.061126478 -0.017216932 0.09590434 -0.02479111
0002a0 4b 9a d1 bd 61 15 0c be 58 0f e8 3d 9d f1 3f 3d
       -0.10234507 -0.1368003 0.113310516 0.04686128
0002b0 bc ed 70 bd 3e 3a 91 3d b0 09 09 bd 51 ce 44 bd
       -0.05882047 0.07091187 -0.033456504 -0.04804832
0002c0 ed 84 d8 ba 19 82 94 bd b0 b5 67 bd c9 a6 14 3c
       -0.0016519107 -0.07251377 -0.056569755 0.009072968
0002d0 a1 07 86 bc 26 85 f9 3c 79 06 b5 bd ec db b0 3d
       -0.01636106 0.030458998 -0.08839125 0.08635697
0002e0 58 7f ca bc c3 8c e7 3d 02 47 7d 3d 95 79 fe 3c
       -0.024718925 0.11306145 0.061835296 0.031063834
0002f0 a3 25 26 3c b1 58 72 bd 92 21 44 bd cf 4d 90 bd
       0.010140809 -0.059166614 -0.047883578 -0.07046091
000300 52 45 85 3d 83 a8 8d 3d a9 71 80 3d 46 0c f4 3d
       0.065073624 0.06916907 0.06271679 0.119164035
000310 be cd 08 3d f1 7e ac 3d 7b 05 ca 3d ed 6b a1 bd
       0.033399336 0.0842265 0.098643266 -0.07881913
000320 f0 52 83 3d 41 50 12 3e 02 13 ec 3d 8a 95 fc 3d
       0.064123034 0.14288427 0.11527063 0.1233321
000330 ff d3 a4 3a 39 0d e6 3d fc bc ce bd 26 4b 97 bd
       0.0012575387 0.11232991 -0.1009464 -0.0738738
000340 36 f3 9d bd bf 0e 08 3d 17 1e 16 bd 0f 22 f2 bc
       -0.077124044 0.033217188 -0.03664979 -0.029557256
000350 5e 77 8f 3d 51 07 43 bd f1 5d 18 bc e0 ad a9 bc
       0.07005189 -0.0476144 -0.009299741 -0.020712793
000360 20 d2 24 3d ac cd bf bd 6f 08 e8 3d c4 32 49 bb
       0.040239453 -0.09365401 0.113297336 -0.0030700425
000370 87 04 23 bc fe c2 c0 3d 93 7d 82 bd a3 9f 7f 3d
       -0.00994981 0.09412192 -0.06371608 0.0624081
000380 43 d1 7b 3c ed e3 09 3e 9d 82 ae 3c 98 7d ab bc
       0.015369716 0.13465853 0.021302516 -0.020933911
000390 03 7e fa 3d 0d d2 cd 3d 15 c5 57 3c 45 a2 65 bc
       0.12231066 0.1004983 0.013169547 -0.014015739
0003a0 1c 05 03 3e 3f 7e 08 3e 27 b8 40 3e fa c4 0d 3e
       0.12794918 0.13329409 0.18820249 0.13844672
0003b0 7b 4e 7a 3d ff 6d ef 3c 95 12 3a 3e aa 8f f1 3d
       0.06111 0.029227255 0.18171151 0.1179498
0003c0 72 4e 00 3e a0 20 58 3d 66 33 b5 bd 40 ae fc 3d
       0.12529925 0.05276549 -0.08847694 0.12337923
0003d0 89 b7 2b bc 63 25 d4 bd 33 2d 04 3e a0 09 01 3e
       -0.01048077 -0.103586935 0.12907867 0.12601328
0003e0 2a 3f e0 3d 35 f0 4d 3e ba ca bd 3d fa a4 1a bd
       0.109495476 0.20111163 0.09267183 -0.03775499
0003f0 33 b0 0c bd 47 6f 94 3d 67 be bf 3c 38 2d 0f 3d
       -0.034347724 0.07247787 0.02340622 0.034955233

lstm.bias_hh_l0 f4 [256]
000000 1a 64 a5 bd a2 3c 2f 3e 4a b5 6b bd d2 f3 80 3d
       -0.080757335 0.17112973 -0.057545938 0.06296505
000010 da 58 17 3e 74 e6 bc 3d 51 e2 c9 3d f9 89 60 bc
       0.14779988 0.09223643 0.098576196 -0.01370477
000020 9d f5 7a 3d ee 30 d9 bc 3d 33 08 3d 1b 47 e8 bc
       0.06126939 -0.02651259 0.03325199 -0.028354218
000030 02 80 62 3b 5c 46 a5 3d 4b c9 68 bc eb ae 83 3c
       0.0034561162 0.080700606 -0.014208148 0.016074618
000040 f3 62 4a 3d fa 5e 25 3e b7 65 1b 3e 35 e0 0a 3e
       0.04941077 0.16149512 0.1517552 0.1356209
000050 70 a9 ee bb 5b 2f 08 be ba 2a 8f 3d 12 6c 52 3d
       -0.007283382 -0.13299315 0.06990571 0.051372595
000060 66 7a 2f 3e d5 d0 96 bc 5d 28 24 3e 79 bb 61 3d
       0.17136535 -0.018410126 0.16031022 0.05511043
000070 e2 f3 10 bd 89 fe 1c bd c7 cb 19 3d 71 9f 86 3d
       -0.035388835 -0.03832868 0.037547853 0.0657338
000080 9f 95 83 3c e3 39 0a 3e c0 b3 e1 3d 9c 72 d6 3d
       0.016062556 0.13498645 0.11020613 0.10471079
000090 53 f7 41 bc a6 33 50 3d 71 ae 55 bd f1 92 b6 3d
       -0.011838752 0.050830506 -0.052168313 0.089147456
0000a0 e9 1f 83 bd c2 79 a8 bd fc 8e f9 3d bd 05 46 bc
       -0.06402571 -0.082263485 0.12185475 -0.012086329
0000b0 4f 1a 06 3e 61 d2 7f 3d 96 b8 5f bc 5b 96 6b 3d
       0.13095973 0.062456492 -0.013654849 0.057516437
0000c0 ce ee 11 bd ff 54 d2 3d d0 2b 85 3d 50 ff 80 bd
       -0.035628133 0.10270118 0.06502497 -0.06298697
0000d0 f9 25 a9 ba 87 74 23 3d b8 58 2a 3d 3b 95 3e 3e
       -0.0012904993 0.03990605 0.041588515 0.18611614
0000e0 b8 85 c5 bd 43 4e c9 3d 1a 66 39 3d 03 9b f9 3b
       -0.096446455 0.0982938 0.045263387 0.007617356
0000f0 90 03 01 3e 26 68 8c 3d ca da e7 3d c0 f3 0e 3c
       0.12599015 0.06855802 0.113210276 0.008725107
000100 95 12 ad 3d 76 d8 15 3d 8f 8a f1 3d 26 a1 ea 3d
       0.0845081 0.036583386 0.11794006 0.11456518
000110 47 98 f0 3d 72 af 92 3d ae b5 75 bd 55 5f bc 3c
       0.117477946 0.0716237 -0.059987716 0.022994677
000120 7f 42 90 3d d9 81 84 3d df be 77 3d 42 7f 85 3d
       0.07043933 0.06470079 0.060484763 0.06518413
000130 be a3 01 be 13 ec a2 bd 01 1b 06 3c 3d ac 8e 3d
       -0.12660119 -0.07955184 0.008185149 0.069664456
000140 06 99 6c 3d f6 1c 24 3d 83 3f b5 3d ea a5 c5 3b
       0.057763122 0.04006668 0.088500045 0.0060317414
000150 15 9f 9b 3c 57 fb b2 bb 26 41 0f 3d 0e 85 be bd
       0.018996755 -0.005462091 0.03497424 -0.09302722
000160 43 80 cc 3d f2 db b0 bc b4 bf 26 bb 29 13 e2 3d
       0.099854015 -0.021589253 -0.0025443854 0.11038811
000170 7a 4d ec bd de b0 cf bd ef fb 55 3d 05 b3 5b 3d
       -0.11538215 -0.101411566 0.052242216 0.053637523
000180 4a 68 c5 3c ce 3a 13 3d 96 23 91 bd b6 96 9e bd
       0.02409758 0.035944752 -0.070868656 -0.077435896
000190 16 bf 4c 3d 3d a3 b2 bd 1d 41 e8 bd 73 fc 9e 3d
       0.04998692 -0.087225415 -0.113405444 0.077629946
0001a0 3f 8a 72 bd 10 c3 b7 bd fa 4d f1 3c 73 c4 52 3d
       -0.059213873 -0.08972752 0.029456127 0.05145688
0001b0 7c 27 34 3e 97 b6 c8 3c b8 86 ab 3d 75 fb da 3d
       0.17593187 0.024501128 0.08375305 0.10692493
0001c0 7e 2d 75 bd 38 e2 87 bd ad 95 c7 3c f7 7d 8e bd
       -0.059857838 -0.06634945 0.024363363 -0.0695762
0001d0 74 e0 8a bb ec b8 16 3b a1 c8 a0 3a 0d d2 15 3e
       -0.0042381827 0.0022998406 0.0012266823 0.1463091
0001e0 a1 1e 71 3b 61 20 4c 3c 4d f9 91 3d 40 93 80 3d
       0.0036791938 0.012458892 0.071276285 0.06278086
0001f0 6a 1c 50 bc 32 3b 9d 3d be 8e d8 3c f3 55 a3 bd
       -0.012702087 0.07677306 0.026435252 -0.07975378
000200 27 d6 8d bd 55 96 dc bd d3 a1 cd bd 67 b9 ca bd
       -0.06925612 -0.10770861 -0.10040631 -0.09898644
000210 24 de 12 bd ea 6b dc 3d 27 f6 ab bd 8e 65 8c 3d
       -0.03585638 0.107627705 -0.08396559 0.068553075
000220 60 2f e4 bd 91 a5 06 bc 2a 20 b7 bd e1 40 fd bd
       -0.111418486 -0.008218185 -0.08941682 -0.1236589
000230 f1 65 42 3d 4c ed 2e bc 3d d1 ce 3c 9b 9a 06 bd
       0.0474605 -0.010676693 0.025246257 -0.032862287
000240 28 54 a8 bd 4c 56 0d 3e 51 6a 8c 3d 50 83 dd bd
       -0.082191765 0.13802451 0.06856216 -0.108160615
000250 06 37 dc bc 54 ee f9 3c 76 a9 02 bd 4c 6f 2b bd
       -0.026881706 0.030509152 -0.03189989 -0.041854188
000260 ae 13 8e 3d 86 f6 0c 3e 3d ac 47 bd df 31 ff 3d
       0.06937347 0.13765916 -0.048748244 0.12460684
000270 d2 c1 00 be 29 d3 b7 3b 61 a2 c8 3d 1c 44 f2 bd
       -0.12573937 0.005609889 0.09796596 -0.11829397
000280 3b 6e 00 3e c0 34 c4 3d d5 cc ac bd 9d 93 bf bd
       0.1254205 0.09580374 -0.08437506 -0.09354327
000290 6f a9 ab bd 13 15 d0 3d 3f 73 9e bd 2c 97 ea bd
       -0.08381926 0.101602696 -0.07736825 -0.11454615
0002a0 b6 08 66 bd 8e b1 6f 3d 4f 27 82 3d 41 eb 45 3d
       -0.05616065 0.05851894 0.06355154 0.04832006
0002b0 ee 95 ec 3d 7e a1 de 3b 46 0e e2 3d a5 ba a9 bd
       0.11552034 0.0067941537 0.11037879 -0.08287553
0002c0 8f 08 22 3c d2 96 00 3e 9f e0 d2 bc 90 54 f0 3d
       0.009889736 0.12557533 -0.025741873 0.11734879
0002d0 63 92 01 3e ff 4d a3 bd 16 2f 12 be 92 d7 a3 bd
       0.12653498 -0.07973861 -0.14275774 -0.08000101
0002e0 a7 f8 54 bd 70 91 8b 3d be 82 3e bd 24 14 a0 3d
       -0.051994946 0.068148494 -0.046511404 0.078163415
0002f0 fb 90 a4 3d 4b 29 ee bd ea fb cb 3d 84 b1 94 bb
       0.08035465 -0.1162897 0.09960158 -0.004537763
000300 94 c1 d0 3c 59 82 d8 3d 9f ab 46 3d 90 84 a7 3d
       0.02548293 0.10571737 0.048503514 0.08179581
000310 08 f5 3c 3d 99 d9 1a bc 43 1b 4b bd 74 32 81 3d
       0.046132118 -0.009451293 -0.049586546 0.06308451
000320 8a cb 10 3e c3 46 38 3e 02 02 9f 3c 84 39 a0 3a
       0.14140144 0.17995743 0.019410137 0.0012224172
000330 c9 2c 49 3c 58 74 3a 3d 68 ed 9c 3c 82 c7 87 bd
       0.012278744 0.04552111 0.019156173 -0.0662985
000340 0d 8c 22 3e 99 bd c1 bb 6e 44 83 bd 7e 48 ca 3d
       0.15873738 -0.0059124944 -0.06409536 0.09877108
000350 43 11 d4 3d ea ed 8b 3c 03 2c e2 3d e0 9f 05 3e
       0.10354855 0.01708122 0.11043551 0.13049269
000360 94 ff 82 3d b5 b2 40 3d 6c fb bf 3d 18 f6 94 3d
       0.06396404 0.04704543 0.09374127 0.07273501
000370 e3 07 d8 3d b5 53 07 3e 74 88 29 3d ab 28 98 3d
       0.10548379 0.13215525 0.041389897 0.07429632
000380 2f ca df 3d 66 13 dc 3d f1 6c a0 bd 3c d0 b6 3c
       0.10927235 0.107458875 -0.07833279 0.02231609
000390 cb 2d e7 bd 6e 93 9a 3d ba 84 cc 3d 2e 46 16 bd
       -0.11288031 0.07547651 0.09986253 -0.036688022
0003a0 17 f0 80 3d e2 21 a3 bd 70 64 8d 3d cc 1c 77 3d
       0.062957935 -0.07965447 0.069039226 0.060330197
0003b0 8e e7 54 3e 68 ba 5e bc c7 43 7c 3e 46 3e 09 bd
       0.20791456 -0.013594247 0.2463523 -0.033506654
0003c0 11 1f fe 3d 61 39 b6 3d 1c 6e b5 3d 9b f6 8b 3d
       0.12408269 0.08897663 0.08858892 0.06834146
0003d0 4c d7 41 bd 99 0b 4c 3d 44 4f 84 bd 4d 76 1a 3d
       -0.047324464 0.049815748 -0.06460431 0.037710477
0003e0 24 8c b6 3d 2f 20 25 3d 17 29 2e 3d 5c c7 0b 3e
       0.089134485 0.040313896 0.042519655 0.13650268
0003f0 3f 8d 93 3c 35 17 bb bd c7 de ad 3d 75 41 c7 bc
       0.018011687 -0.09135286 0.08489757 -0.024323205

lstm.weight_ih_l1 f4 [256, 64]
000000 81 74 a3 bd 17 72 bd 3c df 09 be bd 77 2d 83 bd
       -0.07981206 0.023125691 -0.092792265 -0.06405156
000010 50 29 51 3d 4f 34 90 bd f8 a2 35 bd 23 a0 eb 3d
       0.05106479 -0.07041227 -0.044344872 0.11505153
000020 0a 55 8d 3d 22 ec f7 bd 8a e6 cd bc a5 a9 29 be
       0.069009855 -0.12105586 -0.025134344 -0.1656862
000030 2f df 17 3c 58 f9 27 3e 18 7e e7 bd a3 26 3f be
       0.00926952 0.16403711 -0.11303347 -0.18667082
000040 92 04 bc 3d f4 ae 1e 3e 0d d6 5c 3d 5c 39 d6 bd
       0.09180559 0.15496427 0.053915072 -0.10460159
000050 06 0d 3d be 8e a0 99 3c d1 0f bf 3d 25 37 c0 bd
       -0.18462 0.018753316 0.093291886 -0.09385518
000060 c7 0f dd 3c 8b 0a fc bd 51 9f 0d 3d f8 27 78 ba
       0.026985062 -0.123066984 0.034575764 -0.0009466405
000070 f5 ae 0c be ce 44 8c bd 12 f9 d7 bd d5 2e 37 be
       -0.13738616 -0.06849061 -0.10545553 -0.17888959
000080 1d 47 4c 3c e7 a8 d6 bc d1 78 39 be b3 36 45 3e
       0.012468127 -0.026203586 -0.18112494 0.19259147
000090 91 bd e2 bc 6c e1 fc bd 28 83 09 3d 9e 57 51 bd
       -0.027678283 -0.12347683 0.033572346 -0.05110895
0000a0 1b 6f 3c 3d 69 ed e5 3d 1d 72 0f be dc 3e fb 3d
       0.046004396 0.11226923 -0.14008375 0.12267849
0000b0 42 52 95 bd 81 0c 01 3e f0 cd 6a 3d 5c 13 76 bd
       -0.0729108 0.12602426 0.057325304 -0.060077056
0000c0 8b 97 b2 bd ff e9 7e 3c 6f a4 c3 bd a2 f3 ad 3d
       -0.08720311 0.015558719 -0.095528476 0.08493735
0000d0 f4 6c ee bc 18 f3 2a be 5a 47 0e bd bc 19 95 bd
       -0.029104687 -0.16694295 -0.034736015 -0.07280299
0000e0 c8 4b 9f 3d be ed 50 bd 1d e6 96 bc 09 da 21 3e
       0.07778126 -0.05100798 -0.018420273 0.1580583
0000f0 d7 93 bb bc 42 61 48 be 1c b6 93 bd 51 f9 b9 bd
       -0.022897644 -0.19568351 -0.07212469 -0.090807565
000100 7a 03 77 3d b3 6b 5e 3d 8f 1e 53 bc 96 c7 1b 3d
       0.06030605 0.05430193 -0.012885704 0.038032137
000110 2a e9 7d 3d e2 fe 88 bd a0 9f dc bc 05 c0 ce 3d
       0.06198994 -0.0668924 -0.026931584 0.100952186
000120 16 ed 37 3d 53 be 06 3e 30 27 aa bd 51 fd 9e bd
       0.044903837 0.1315854 -0.08308256 -0.0776316
000130 40 46 a3 3b aa 08 ef 3d 41 c4 df 3d d6 6e a9 bd
       0.0049827397 0.116715744 0.10926104 -0.082730934
000140 df 00 c8 bc 76 01 29 3e 6f 2e 8b 3d ad 2b 00 3c
       -0.024414478 0.16504464 0.06795966 0.007822913
000150 1a 00 81 3d 45 29 88 3d ad 4e 69 3d 33 c7 cc 3d
       0.062988475 0.066484965 0.056959797 0.09998932
000160 b5 5e d4 3d ca 08 79 3d 14 7b 63 bd 89 99 c1 3c
       0.103696264 0.060799398 -0.0555373 0.023632782
000170 6c 14 03 be 7b 8f 09 be 91 72 83 3c 1d 75 93 3c
       -0.12800759 -0.1343364 0.01604584 0.01800018
000180 d8 89 8e bd 82 da 11 3e 73 78 84 3d 0e 8d 36 bd
       -0.06959885 0.1424351 0.06468286 -0.044568114
000190 b6 aa a3 bc ea a4 04 3d 27 29 1e be 8c ce ca bc
       -0.019978862 0.032383837 -0.15445386 -0.024756692
0001a0 1d 3c 62 3d 32 ee 10 3e 90 c7 00 3d b5 ce 19 3e
       0.05523311 0.14153364 0.031440318 0.15020259
0001b0 74 3c ef 3c 6c 3e f2 3d ab 52 11 3e 9f f2 9e bb
       0.029203631 0.11828312 0.14191692 -0.0048507
0001c0 c5 00 5e 3d 7c 39 27 be 44 60 04 be c5 1c a2 3d
       0.054199953 -0.16330522 -0.12927347 0.079156436
0001d0 dd 4d 6a 3d cd 12 5d 3d cb 6b 9a bd 2c 8b 03 3d
       0.057203162 0.053973008 -0.07540091 0.032115147
0001e0 a6 74 41 3c 84 36 bb bd d5 0c ba 3d 82 ce 01 3d
       0.011807596 -0.091412574 0.09084479 0.03169108
0001f0 11 a0 87 3b 7f b9 97 3d 3f e9 3c 3d c0 cf 77 3d
       0.0041389544 0.074084274 0.04612088 0.06050086
000200 30 ef 3a 3d ae 53 fc bc c5 34 26 be 7f 15 9a bd
       0.045638263 -0.03080162 -0.16231067 -0.07523631
000210 8d 92 56 bc e9 a0 ae 3c 80 ad 2e be 28 f7 2d 3e
       -0.013096464 0.021316962 -0.17058372 0.16988814
000220 22 d3 a4 3d dd b4 16 bd 50 67 ea bd 82 d2 1c be
       0.08048083 -0.03679358 -0.114454865 -0.15314677
000230 dd d2 95 bd e6 e9 b4 3d 1a db 90 3c 44 00 20 bd
       -0.073156096 0.08833675 0.0176826 -0.039062753
000240 62 75 3f 3d 22 88 37 bb 71 20 83 bc d4 62 44 bd
       0.046742804 -0.0028004725 -0.01600668 -0.047945812
000250 78 e2 bd bd 89 e2 12 be f9 6e f8 3d c8 b3 3b 3d
       -0.09271711 -0.14344229 0.12130541 0.04582575
000260 0c 10 42 3d db de a5 bc be 3b 28 bc 18 9f a6 bd
       0.047378585 -0.020247867 -0.01026815 -0.081358135
000270 60 32 56 bc 8f 31 3a be 5e 2b c2 3c ff 95 84 3d
       -0.013073534 -0.18182968 0.02370232 0.06473922
000280 64 d4 fe 3b 09 f6 d7 3d dc bc f8 bd 74 b2 2b 3e
       0.007776784 0.10544974 -0.12145397 0.16767293
000290 c3 84 24 3e e8 15 13 bd 74 5e a3 3c cb 15 a9 bc
       0.1606627 -0.035909563 0.0199425 -0.020640275
0002a0 5a 9b 7e bd 47 f3 40 bd 20 ef aa 3d 39 1a 15 b9
       -0.062159874 -0.047107007 0.08346391 -0.00014219516
0002b0 0d 68 d7 bd 7a c2 08 3e 5f 89 18 bd f0 ed 99 bc
       -0.10517893 0.13355437 -0.037240382 -0.018790215
0002c0 d7 9a 86 bd 96 bd 39 be 8e 0d 08 ba 2a e1 36 bd
       -0.06572502 -0.18138728 -0.0005190008 -0.044648327
0002d0 ad 33 40 3d 11 f5 8c bd 38 9d 1f 3d de ad cb 3c
       0.046924282 -0.0688268 0.038968295 0.02486318
0002e0 a9 ed d1 bd 5f 2e 02 bd 5c 76 ff 3d 70 54 4b 3e
       -0.10250408 -0.031782504 0.12473747 0.19856429
0002f0 09 23 19 bd 21 35 c3 bc 4c 3d ff 3d f0 45 6a bd
       -0.037386928 -0.023829045 0.12462863 -0.057195604
000300 29 6d ff 3c 08 df 24 be 0e 3f 1f be 5f 69 26 3e
       0.031179981 -0.16100705 -0.15551397 0.16251133
000310 fa cc 4a bd dd 06 0e 3e e7 ff 35 bd 58 de 7b bd
       -0.049511887 0.13869806 -0.0444335 -0.06149134
000320 ce 14 de 3d 45 73 b6 bd 9a 15 96 3d a6 1d fe 3d
       0.10843812 -0.08908705 0.07328339 0.12407999
000330 06 b9 24 be a4 b5 c0 3d c4 5c 15 3e 1e 38 ea 3c
       -0.16086206 0.09409645 0.14586169 0.028591212
000340 d0 06 62 3d 88 cf 84 3c 10 bc b4 bc a9 bf ab 3d
       0.05518228 0.01621224 -0.022062331 0.08386166
000350 29 08 06 be 34 58 28 be 54 cb 13 3e da 50 0c 3c
       -0.1308905 -0.16439897 0.14433032 0.008564198
000360 43 c0 29 be e8 02 85 3d f8 4a eb bd a3 fd c0 bd
       -0.16577248 0.06494695 -0.114889085 -0.09423377
000370 9d 2c 2d bd bd 90 43 be 15 20 80 bd c2 0c b9 bd
       -0.042278875 -0.19098182 -0.06256119 -0.090356365
000380 0c d2 df 3b 40 e3 9a 3d 4e 89 e6 bd 2b 5a 9f 3d
       0.0068304595 0.07562876 -0.112566575 0.0778087
000390 b3 56 2b 3d 00 e0 b0 bd ec 8c af bd 75 2c 0e bd
       0.04183073 -0.086364746 -0.085718006 -0.034710366
0003a0 b7 9b cf bd fb 74 e2 b9 ec 54 17 3e 6d b9 c0 3c
       -0.10137122 -0.00043193236 0.14778489 0.023525918
0003b0 0b ed cf bd f7 99 f5 3d d3 68 c4 bc a4 e6 33 3c
       -0.10152634 0.11992257 -0.023975765 0.010980282
0003c0 98 31 13 3c cc 5a 4e 3d 15 ec 1c be ef b7 b0 bc
       0.008983992 0.05037956 -0.15324433 -0.021572081
0003d0 69 71 f9 bd a9 07 16 3d 6d ff 59 bd 82 48 d7 bc
       -0.121798344 0.0366284 -0.05322211 -0.026279692
0003e0 69 a1 2a bd f1 68 a2 bd b4 bf 96 3c 5d 23 c7 3c
       -0.04165784 -0.07930172 0.018401958 0.024308855
0003f0 28 35 26 3d e6 da 1e 3d 90 ec 8e 3d a0 2b 3a 3e
       0.040578038 0.038782977 0.069787145 0.18180704

lstm.weight_hh_l1 f4 [256, 64]
000000 55 98 eb bd a7 27 a2 bd 47 2f 01 3e b5 90 aa bc
       -0.115036644 -0.07917719 0.12615691 -0.020820955
000010 00 5f a9 3d 80 2d db bc 7b 89 2f 3c c8 73 16 be
       0.08270073 -0.026755095 0.01071393 -0.14692605
000020 7b 95 c0 bd 27 28 80 3c f1 5b eb 39 ef 0f 0d bc
       -0.09403511 0.015644146 0.00044891195 -0.008609756
000030 a9 93 e8 3b ea 11 46 3d 73 fd c2 bc aa e7 0c 3e
       0.0070976806 0.048356928 -0.023802495 0.13760248
000040 9a f6 0b be 74 16 94 bd 15 c1 17 3e 79 03 ab 3c
       -0.1366829 -0.07230845 0.14819749 0.02087568
000050 f8 35 86 3d e6 99 8c 3d a2 93 d4 bd e7 59 5f bd
       0.065532625 0.06865291 -0.10379721 -0.054529097
000060 af 0c 08 3e 92 4d aa bc 30 a6 0d bb 7c e5 22 be
       0.13286088 -0.020788942 -0.0021613948 -0.15907854
000070 2c 7e 40 be e3 91 05 be 54 9c 97 bc 40 e8 a4 3d
       -0.18798131 -0.13043933 -0.01850716 0.08052111
000080 4f 57 35 bc ae b7 2d 3d 0a 90 dd bd 2a fd f1 3b
       -0.011068179 0.0424115 -0.10818489 0.007384916
000090 45 24 93 bd fa 30 9f 3b cc 1f 41 be d6 05 0d 3e
       -0.07184652 0.0048581334 -0.18859786 0.13771757
0000a0 94 d5 d0 3d 2b 88 ef 3b c6 11 31 bd 50 81 bf 3d
       0.10196987 0.0073099337 -0.04322984 0.09350836
0000b0 3f 9c 17 bd d0 e6 14 3e 51 2a 69 bc cf 80 8a 3d
       -0.037014242 0.14541173 -0.01423128 0.067628495
0000c0 d9 1a 12 3e 49 f8 8d bd 99 94 bb 3b b2 02 f9 bd
       0.14268054 -0.06932122 0.0057245013 -0.12158717
0000d0 f4 cd a0 bc bf 3e 65 bd 30 c0 35 3d c2 1d 4d bd
       -0.019629456 -0.055968042 0.044372737 -0.050077207
0000e0 d1 a9 90 3c c6 8c 14 bd bd 2d 22 3d 7d 45 17 bc
       0.0176591 -0.036267065 0.0395944 -0.009232876
0000f0 7c 92 6a 3c 85 b1 06 be 0e 03 0d 3d 91 7d 71 3d
       0.014317151 -0.13153656 0.03442674 0.05895764
000100 b8 9a 4d 3d a0 b3 f3 3c 99 8c 5d 3d ef d4 5a bd
       0.05019638 0.029748738 0.054089162 -0.053425726
000110 4e e0 c5 bc 78 cd f4 bd 80 65 cb bd 93 62 0b bc
       -0.024154808 -0.119532526 -0.09931469 -0.008507389
000120 07 6d 34 be 40 61 7f 3d 5b 6b c6 bd 0a a2 94 bd
       -0.17619716 0.062348604 -0.09688445 -0.07257469
000130 93 6c b9 3d 5a 00 72 3d ee 3c 98 bd ad 66 eb bc
       0.09053912 0.059082367 -0.074334964 -0.028735483
000140 3b 38 68 3c 80 e8 bb bd a8 2b 8d 3d 3b b8 af bc
       0.014173563 -0.09175205 0.068930924 -0.021450153
000150 f9 5e a6 bc c8 cc a0 bd 36 85 29 3d 2f b5 e4 3d
       -0.020308958 -0.07851559 0.041386805 0.111673705
000160 ba 1c 21 b9 46 a1 9d bd b7 6d f7 3c fa bc 1f 3e
       -0.00015364858 -0.07696776 0.030203683 0.15599433
000170 ef 67 d1 3d e3 03 34 3d 96 c7 bb bd fc c3 21 3a
       0.10224902 0.04394902 -0.09168927 0.00061708665
000180 2a fa bc bd 80 72 ba bd 01 4c e5 bd e8 ef 92 bd
       -0.092274025 -0.091038704 -0.11196137 -0.07174665
000190 7a b8 cb bd e6 40 f6 bc 46 5e b5 3c ec ae 62 bc
       -0.099472955 -0.030060243 0.02213968 -0.01383565
0001a0 33 f5 a0 3d c4 21 00 3e 66 b9 39 bd 32 ad 1f bd
       0.07859268 0.1251288 -0.045342825 -0.03898353
0001b0 e1 47 a8 bd d3 40 db 3d 7f 79 a6 3d 39 73 bc bd
       -0.08216835 0.107057236 0.08128642 -0.092016645
0001c0 f5 41 bf bd c3 18 09 be c4 52 9c 3d c9 44 3b bd
       -0.09338752 -0.13388352 0.07632974 -0.045719896
0001d0 67 55 aa 3d c4 d7 1b 3e 8a 06 cf bc 41 6a 86 3d
       0.083170705 0.15219027 -0.025271673 0.06563235
0001e0 22 85 a4 bd 36 25 ae bd e0 51 c4 bd 5f 65 24 bd
       -0.080332056 -0.08503191 -0.09585929 -0.040135738
0001f0 ac 0e 3d 3d d4 4c b3 3d 17 05 ca 3d 42 3a 87 3d
       0.04615657 0.08754888 0.09864252 0.06602909
000200 c4 41 8b bd 4e dd c1 3b 79 52 e0 3c 56 b2 04 be
       -0.06799653 0.005916274 0.027383076 -0.12958655
000210 ec e9 78 bc 44 0e 42 3c ef 5b cc 3d 3b 94 a9 3d
       -0.01519249 0.0118442215 0.099784724 0.08280226
000220 a4 6e 5f 3a d1 bc 5b 3d 55 d3 c4 bd 84 81 e7 bc
       0.00085232616 0.053646866 -0.09610621 -0.02826
000230 fb b8 96 3d 31 60 11 bd 45 9a 92 3d ef 79 42 3c
       0.07359501 -0.035492126 0.07158331 0.011869892
000240 f0 d4 5c 3c 81 d8 ed bc e8 db 1d bd 84 aa 89 bd
       0.013478503 -0.029033901 -0.038539797 -0.067219764
000250 28 10 94 3b 97 b1 86 3d f9 9f 80 bd 5f 8a e0 bd
       0.0045185275 0.06576841 -0.06280512 -0.10963892
000260 83 b1 b4 3c 96 3d 1f 3d 5e 36 f9 3d 52 45 32 bd
       0.0220573 0.038877092 0.12168573 -0.04352314
000270 bf 31 c1 bc c6 ca 12 3d 25 3a aa bd c5 1f f6 3c
       -0.023583291 0.03583791 -0.083118714 0.030044446
000280 5a f1 2b be ee 35 19 be 5b b4 8a bb 9c e3 b5 3d
       -0.16791287 -0.14961979 -0.004232926 0.08881304
000290 67 ad ee 3b 97 7d e1 3d db 7e 34 bd 58 37 01 3e
       0.0072838548 0.110102825 -0.04406629 0.12618768
0002a0 e3 e5 92 bd 0f 42 f2 3d 3b fa a7 3d ae 83 be bd
       -0.07172754 0.11829006 0.082020245 -0.0930246
0002b0 9f 16 b4 3b 49 29 9c bd 57 30 aa bd 39 9a e4 bd
       0.0054958607 -0.07625062 -0.08310001 -0.11162228
0002c0 ec 1a 1c 3c 93 e6 d4 3d 0e ba 1c bd 67 d2 36 3d
       0.009527903 0.10395541 -0.038263373 0.04463425
0002d0 29 02 20 3c 6c 13 aa 3d d6 81 19 bd 47 23 ee 3d
       0.00976614 0.08304486 -0.037477337 0.11627822
0002e0 11 59 c5 bc 26 62 3a 3d f4 60 ba 3c 85 95 99 3d
       -0.024090322 0.045503758 0.022751309 0.07499222
0002f0 be 9d d6 3d 20 e9 88 3c eb 4b 0d bc 9a b7 20 bd
       0.10479306 0.016712725 -0.008624057 -0.039237596
000300 6c d1 94 3c 4e 37 d3 bd 8f 39 a3 3c f9 f5 86 bb
       0.018166266 -0.10313283 0.019924907 -0.0041186777
000310 bc 6a 34 3d dd 4c 0f 3d 5b 1b 7c 3d 70 fa a1 bd
       0.044047102 0.034985412 0.061549526 -0.07909095
000320 bb 23 10 be 6a 77 45 3d 63 e1 5b bd c0 53 b9 3d
       -0.1407613 0.048209585 -0.053681742 0.09049177
000330 92 77 bf bc dd 09 4d 3d 48 96 22 3c 45 75 3e 3d
       -0.023372445 0.050058234 0.009923525 0.046498556
000340 4e 2b b9 bd e9 8a a8 3c 2c 5c 9c 3d 43 e1 c5 3d
       -0.09041463 0.02057405 0.07634768 0.09662106
000350 1b 30 85 3c d2 b8 c7 3d e7 b8 d3 3d 2c 5f 8b 3d
       0.01625829 0.097520486 0.10338002 0.06805262
000360 01 f0 8b bd 38 69 e8 3d 5d 8b b1 3d bc 4a e4 bb
       -0.068328865 0.11348194 0.086691596 -0.006966917
000370 80 61 88 3d 10 05 8d 3d 2e ce fb 3d 94 d9 a0 3d
       0.06659222 0.06885731 0.12295185 0.07854
000380 fc 8e 3e bd 0d 79 17 be 90 3c 0a be 30 09 18 be
       -0.04652308 -0.14792271 -0.13499665 -0.14847255
000390 7f 5d 48 3d 3a aa 3b bd 59 9a a9 ba cb d9 98 bc
       0.04891729 -0.045816638 -0.0012939676 -0.01865854
0003a0 04 25 a2 3d ef 4e 98 3d 6b 6a 89 3c a9 27 da 3d
       0.079172164 0.074369304 0.016774377 0.10652096
0003b0 0f 6b 5b bc 97 a1 1c 3e a6 34 3d 3d 85 b2 0a 3d
       -0.013392224 0.15296017 0.046192788 0.033861656
0003c0 4a 2e ac bb e2 22 b2 bd ca d5 c4 3d d9 bf ac 3c
       -0.0052545415 -0.086980596 0.096110895 0.021087574
0003d0 37 8b 79 bd c5 51 a3 3c 2f da 01 bc 51 a9 e3 3c
       -0.06092378 0.019936452 -0.007925554 0.027790697
0003e0 23 58 aa bc 15 06 d0 3d 0e c9 da bb c1 73 7f bd
       -0.02079398 0.1015741 -0.0066767996 -0.06236625
0003f0 d9 f8 84 bd 85 3e b9 bd 36 8b e9 3d 3d 41 27 3e
       -0.064927764 -0.09045128 0.114035055 0.1633348

lstm.bias_ih_l1 f4 [256]
000000 94 1e df bb a6 7c 3e 3d 59 14 23 3d 72 d1 3d bd
       -0.006809065 0.046505593 0.039814327 -0.04634232
000010 ce e0 c9 3d 27 01 0e bd 8c 18 75 bd ce fd 6d bd
       0.09857331 -0.034669068 -0.059837863 -0.058103375
000020 ba 6f bf 3d 67 52 52 bd 55 45 cf 3d 20 6a 81 bd
       0.09347482 -0.051348116 0.10120646 -0.0631907
000030 bb cf dc 3d 7d 02 e6 3d 11 e3 63 3d db c7 55 3d
       0.10781809 0.11230943 0.05563647 0.05219255
000040 d7 01 15 3e 20 98 8f 3d e1 8f b9 3c 42 58 db 3d
       0.14551483 0.070114374 0.022651615 0.10710193
000050 f2 63 52 3d b4 26 05 3e e4 cc 97 bd 6e 35 62 3c
       0.051364847 0.13003045 -0.07412127 0.013806684
000060 0a 18 c0 3d e3 f9 f3 bc d3 d5 24 3e 2e a0 b1 3d
       0.09379585 -0.029782241 0.16097192 0.0867313
000070 21 08 83 bd fa 52 cd 3d 53 5b 66 bd fb 0a 2c 3e
       -0.06398035 0.10025592 -0.056239437 0.16801064
000080 fb d5 36 bd 7c f4 d1 3d d3 ce 13 3c 08 5a 99 3d
       -0.04463766 0.1025171 0.009021479 0.07487875
000090 bf 84 4a 3d 61 56 c5 bc b7 17 8d bd a3 b6 97 bd
       0.049443003 -0.02408904 -0.06889289 -0.07407882
0000a0 7f 9f b7 3d b4 7d 32 bd a0 f7 14 bd 3e 39 7b 3d
       0.08965968 -0.04357691 -0.036368966 0.061333887
0000b0 d5 ca 85 3d 33 8d e1 3d 15 14 c5 3d a3 d5 a7 3d
       0.06532828 0.1101326 0.09622971 0.08195045
0000c0 20 ef c0 bd be 36 60 3d 19 0a af bb c1 36 09 3e
       -0.094206095 0.054739706 -0.00534178 0.13399793
0000d0 87 1b 5b 3c 0f e8 c2 bc 65 11 91 3c 43 26 eb 3a
       0.013373262 -0.023792295 0.01770849 0.001794048
0000e0 4b af dc 3d 11 f6 22 bc 04 4b c2 3d a0 9c 2e 3d
       0.10775622 -0.009946362 0.09486964 0.042629838
0000f0 bd 33 16 3e 38 be f2 3d e7 cb 8c 3d 4b 06 95 bc
       0.14668174 0.118526876 0.06874829 -0.018191477
000100 b6 3d 38 bd 20 58 ba 3d 92 fc d4 3b d1 57 21 bd
       -0.044980727 0.0909884 0.0064998353 -0.03939039
000110 55 3a 1f 3d ff 59 d0 3d a7 67 9c bd f2 36 96 bc
       0.03887399 0.101734154 -0.076369576 -0.018336747
000120 e8 65 12 3c 0f 06 a8 bd fd 97 07 3e dd 3c c9 3d
       0.008935429 -0.082042806 0.13241573 0.09826062
000130 15 1a c1 bd 87 e7 a1 3c 94 26 e0 3d 54 e7 87 3d
       -0.09428803 0.019763721 0.10944858 0.06635919
000140 73 8c ca 3b 8b 7d 42 3c 6b f3 4c 3d 76 97 d2 bb
       0.0061812936 0.011870752 0.05003683 -0.006426747
000150 3e ae 4b 3d 7a 7d fa bb d7 d0 b1 bb 06 52 b9 3d
       0.049726717 -0.0076443525 -0.005426507 0.09048848
000160 86 ed 1d 3e 81 bd 15 3e 10 48 32 bd 5c 0e 1f 3e
       0.15422639 0.14623071 -0.043525755 0.15532821
000170 84 5d bd ba 5a c3 77 bb bd 89 02 bd 96 32 8f bd
       -0.0014447425 -0.0037805648 -0.03186964 -0.069920704
000180 bf 9d 7d bd e9 1e ad bd 3a e6 3f 3d e5 8f b1 3c
       -0.061918017 -0.08453161 0.04685042 0.02167506
000190 38 ce 26 bd fa 22 fe 3c a9 0d 7b bd eb c0 5c bc
       -0.04072401 0.031022537 -0.061292324 -0.01347373
0001a0 92 26 d6 3d f7 a1 cd bd 48 f7 98 bd 70 d3 5d 3d
       0.104565755 -0.10040658 -0.0746904 0.05415672
0001b0 92 70 3e bd 48 b6 cd 3c af ec 0e 3e bc ea de bd
       -0.046494074 0.025111333 0.13957475 -0.10884616
0001c0 36 6d 84 3c ac f2 af bc 4b a6 12 3d de dc e5 bc
       0.016165357 -0.02147802 0.03580312 -0.02805942
0001d0 49 49 a5 3d 66 5b b1 3d 85 64 ae bd 80 c0 0f bc
       0.08070619 0.08660011 -0.08515266 -0.008773923
0001e0 d0 bc f1 bc 43 ba cc bb 4a 87 c7 bd 92 3a f9 3c
       -0.029508978 -0.00624779 -0.09742601 0.030423436
0001f0 5e 83 5a 3d 40 03 00 bd fd 66 e8 3d 84 9e b6 3b
       0.053347938 -0.0312531 0.113477685 0.0055730958
000200 05 76 e5 ba 4b de bc 3c 7f d6 92 3c f1 86 19 be
       -0.0017506486 0.023055216 0.017924545 -0.14992882
000210 6a eb 85 bd 38 00 9d bd 24 ab 85 3c 26 bb 8f 3d
       -0.06539042 -0.07666057 0.016316958 0.070181176
000220 ae 4b 87 bd 02 bc 53 3c ed c2 47 bd ae 61 39 bc
       -0.06606232 0.0129232425 -0.04876988 -0.011314793
000230 bb 7a 24 3d 13 3a 3f bd 38 27 9d bd aa 1b 2b bd
       0.040156107 -0.046686243 -0.07673496 -0.04177443
000240 78 39 70 3d 8f 34 85 3d 7e 21 d8 3d 45 fb 73 3d
       0.058648556 0.065041654 0.10553263 0.0595658
000250 2b bf 54 bd f0 5b cd 3d df 08 b6 bd 41 bb 95 3d
       -0.051940124 0.10027301 -0.08888411 0.073111065
000260 ef 33 c1 3d 26 7d d9 bc 0d d8 91 bd 65 36 0c 3e
       0.09433734 -0.026548933 -0.071212865 0.13692625
000270 03 89 98 3d 35 4e f0 bd c2 39 e9 bc 7e 72 f8 3d
       0.07448008 -0.11733667 -0.028469924 0.12131213
000280 01 1b 6e bd 1e 5d 8d bd 4e 1d 84 bd 67 b8 d9 bd
       -0.05813122 -0.06902526 -0.06450902 -0.10630875
000290 cd 77 2c bd ec 06 ea bd aa 3e 68 bd 3c 82 93 3d
       -0.04210644 -0.114271015 -0.056700386 0.072025746
0002a0 2e cf 9a bd 6f 62 90 3d c4 02 6c bd 54 69 99 bd
       -0.07559048 0.07050025 -0.057619825 -0.07490793
0002b0 4d 9b 3d bc 32 61 04 3e e1 89 98 bd c4 b8 be bd
       -0.011572671 0.12927702 -0.07448173 -0.09312585
0002c0 a5 39 94 bd b8 1a d4 bd 5a a5 1d 3d 2f e9 ba 3d
       -0.07237557 -0.10356659 0.03848777 0.091265075
0002d0 1b da e7 3c e2 cb 63 bc 08 25 d2 bd 38 21 5c bb
       0.028302243 -0.01390359 -0.102609694 -0.0033589136
0002e0 59 46 b6 3d e0 89 a9 bd d5 90 f3 bc 0a bb 4e bd
       0.089001365 -0.08278251 -0.029732147 -0.050471343
0002f0 20 a8 e4 3d ba e2 ed 3d 63 d6 e5 3d 25 1d 8c 3d
       0.1116488 0.1161551 0.11222532 0.068414964
000300 51 7c 2c 3e 1b 0c 83 bd 61 55 8c 3c d9 11 e9 3c
       0.16844298 -0.06398793 0.017130556 0.028450893
000310 70 a9 17 3e 4e dd 28 3e 76 59 98 3d cb e7 3a 3e
       0.14810729 0.16490671 0.07438938 0.18252485
000320 2b 2d f4 3d e9 b6 df 3d bb c7 39 3e de 1d 0c 3d
       0.119226776 0.10923559 0.18142597 0.03420817
000330 73 2c 17 3e fb 62 2a 3e f8 68 3c bc d0 70 3e 3d
       0.1476305 0.1663932 -0.011499636 0.046494305
000340 78 f0 1c 3e fb 65 64 3d 84 8e 06 3e e4 d1 89 3d
       0.15326107 0.05576132 0.13140303 0.067294866
000350 57 43 0d 3e ae 80 2a 3e ca 8c 03 3b ce 99 ca 3d
       0.1379522 0.1665065 0.002007293 0.09892617
000360 02 8e 13 bd f3 bf 13 3c c8 c5 e3 3d 7e e3 03 3e
       -0.0360241 0.009017932 0.11121708 0.1287975
000370 be f5 a0 3c 7f d0 2e ba 0d e4 2f bd fd 6b e5 3c
       0.019648429 -0.00066686416 -0.042942096 0.028005594
000380 35 ea 24 3e 7c 15 a1 3d 63 ee ea 3d b3 f4 27 3e
       0.16104968 0.07865426 0.1147125 0.16401939
000390 e2 d9 82 3d f5 45 53 bd 83 50 8b bd 04 ed 63 bd
       0.06389214 -0.051580388 -0.06802466 -0.055645958
0003a0 8b 5d 49 bd fc e5 46 3d a0 81 78 bc 4d 11 d9 bc
       -0.049161475 0.048559174 -0.015167624 -0.026497507
0003b0 4c 4e 8f 3d b5 2c a2 3d 89 5b 8b 3c db f6 1d 3e
       0.06997356 0.079186834 0.01701142 0.15426199
0003c0 f9 ba c5 3d d3 71 d4 3d 0a 5f bd bb a7 40 eb bc
       0.09654803 0.10373273 -0.005779152 -0.028717352
0003d0 31 b7 0b 3e 03 5c 9b 3d d5 44 11 3e 38 eb 14 3e
       0.136441 0.07585909 0.14186414 0.14542854
0003e0 72 24 a7 3d 24 19 9b 3b ea d4 97 3d 94 58 8d 3d
       0.08161248 0.0047332216 0.07413657 0.069016606
0003f0 0a d1 fa 3d 8c 59 00 3e 20 d7 9c 3d ee 8d 17 3e
       0.12246902 0.1253416 0.07658219 0.14800236
