model/knoweldge_system/artifacts/casablanca/best_lstm_model.pt (torch, 239271 bytes, 10 tensors)

lstm.weight_ih_l0 f4 [256, 22]
000000 61 fa 34 3d d5 37 b4 3d 2f df b1 3d 54 58 1b 3e
       0.044184092 0.087997116 0.08685147 0.15170413
000010 69 70 d1 3d 72 6f c7 3d f7 74 6e 3d 5e b0 cb 3d
       0.10226519 0.097380534 0.058217015 0.09945749
000020 92 05 e4 3d 93 bd 62 bd 5b 35 94 bd 80 e9 bf 3c
       0.11133875 -0.055356573 -0.07236739 0.023426771
000030 f3 f5 ff bd 8f 11 e0 3b d7 39 5a 3d 46 1a f8 3d
       -0.12498083 0.0068380306 0.053277817 0.12114386
000040 05 fd c2 bd 92 f8 98 3d b5 27 13 3d cb 9e 06 bd
       -0.09520916 0.07469286 0.03592654 -0.03286628
000050 2f 23 90 bd b2 8b bb bd d0 93 cb 3d 20 c8 a0 3b
       -0.07037961 -0.09157504 0.09940302 0.0049066693
000060 ab 2b 0d 3c 27 65 3e bd d1 f9 a1 bd 48 60 07 be
       0.008616368 -0.046483185 -0.07908977 -0.13220322
000070 a0 8b 87 bd 31 24 e2 3d 20 49 0a 3e af f2 a9 3c
       -0.06618428 0.11042059 0.13504457 0.020745603
000080 a3 8b 86 3d 6e a1 f5 3c 8a 51 2d bd 20 7a f6 3d
       0.06569602 0.029984202 -0.04231409 0.12035012
000090 b1 33 1b be 2f cc 4a 3d b5 91 06 3d 85 66 1b be
       -0.15156437 0.04951113 0.0328538 -0.15175827
0000a0 a3 01 92 bc 6e f7 8f 3d b0 49 c9 3b b7 ed 04 3e
       -0.017823046 0.07029615 0.0061428174 0.12981306
0000b0 f7 73 08 bd af 3b be bd ef 74 68 bd 5e 62 73 bd
       -0.033313718 -0.092887275 -0.05675214 -0.059419982
0000c0 d0 2c 33 3d 13 87 ca bd f8 80 87 bd 0c a9 5b bd
       0.04374391 -0.098890446 -0.06616396 -0.053628013
0000d0 4e 3d b1 bd 2e 32 34 bd 19 6a 50 bd b1 8f 5f 3d
       -0.08654271 -0.043993168 -0.050882433 0.054580394
0000e0 36 0b 3d 3c 38 95 15 3d 25 cf bf 3d e0 54 a8 3b
       0.011538317 0.03651926 0.093656816 0.005137071
0000f0 a9 2c 79 3c b2 e2 a0 bc c5 ef 2c bd 9c 2a fa bd
       0.015208402 -0.019639347 -0.04222085 -0.12215158
000100 08 8c fb bc bc e2 d2 bc 89 3b 35 bd 19 5e 12 3d
       -0.03070642 -0.025742881 -0.04424623 0.03573427
000110 c6 ad 03 3e 3d b2 26 3d 47 d9 c1 3d 53 ef f3 bd
       0.12859258 0.040697325 0.094652705 -0.11910882
000120 10 f0 c7 bc eb fd 8c bb 15 81 be bd 7d 06 03 3c
       -0.024406463 -0.0043027303 -0.09301964 0.007997152
000130 ef 79 82 bd 63 3f 39 bc c0 6a c2 3d 4a 98 eb 3a
       -0.06370913 -0.0113066165 0.09493017 0.0017974463
000140 fb 8a 7d bd e5 b6 a5 3c e1 8a fb 3a df 23 79 bd
       -0.06190012 0.020228812 0.0019191169 -0.060825225
000150 19 a7 6f 3d 5b a6 1e 3d 9c 8d 79 3d 84 bb 60 3d
       0.058508966 0.038732868 0.060926065 0.05486633
000160 6e e6 a5 bc 2f 97 0a bc 8b 87 8b bd c3 47 cc bd
       -0.020251479 -0.008458897 -0.06812962 -0.09974625
000170 0f f9 57 bd d2 90 b0 bd 75 4c be 3d a0 c3 bd bd
       -0.052727755 -0.08621372 0.09291927 -0.09265828
000180 3d a4 b2 bd cc 93 1c 3d ac d9 02 bd fb 8f 7d 3d
       -0.08722732 0.038226888 -0.03194587 0.06190489
000190 da b8 84 3c 22 d5 a0 bd 51 03 2d be 76 27 e0 3c
       0.016201425 -0.07853152 -0.16895796 0.027362566
0001a0 fe ec b0 3d 4b 6d 54 bd a1 f9 5b bd 1e 9c 89 bd
       0.08638953 -0.051862042 -0.05370486 -0.0671923
0001b0 25 21 c3 3d ab e1 6f bd 95 5b 58 bc 20 cd 6e bd
       0.09527806 -0.058564823 -0.013205429 -0.05830109
0001c0 5b 91 e2 bd 66 95 db bd d5 56 00 3d f4 71 cc 3b
       -0.110628806 -0.10721855 0.03133281 0.00623917
0001d0 04 90 82 bc a9 e5 99 bd 74 a7 f8 bc d4 f5 7e bd
       -0.015937813 -0.07514507 -0.030353285 -0.06224616
0001e0 de 4c c4 bd dd 10 b9 3c 7c eb 79 3d 15 65 53 3d
       -0.09584974 0.022591049 0.06101559 0.05161007
0001f0 37 66 05 3d 28 23 5e bc 96 e2 95 bd 5b 55 b4 3b
       0.032568183 -0.013558187 -0.073186085 0.005503339
000200 f2 c4 82 bd 68 f6 28 be 0a 99 ab 3d 60 7c 0d 3e
       -0.063852206 -0.16500247 0.08378799 0.13816977
000210 ba c5 0e be bc e2 5a bd b1 10 01 3d 9c e5 d7 bb
       -0.13942614 -0.053438887 0.03151006 -0.006588651
000220 ae 79 87 bc 08 02 09 b8 09 be ad bc cb 6a 99 bd
       -0.016537514 -3.2665237e-05 -0.02120878 -0.07491072
000230 02 2a 86 bc 6a a3 20 be 04 e8 9c 3c c9 56 b7 3c
       -0.016377453 -0.15687338 0.019153602 0.02238025
000240 91 f9 b4 bd fa 3c b7 3b ee ca dc bc e8 76 03 be
       -0.088366635 0.005591986 -0.026952233 -0.12838328
000250 e1 3c a5 bd 25 ab c9 bb 01 ff cb bd f2 c5 0c bd
       -0.08068252 -0.006154435 -0.099607475 -0.034368463
000260 6f 53 fa 3d cb 61 db 3c 81 07 ff bc 0b fa c1 bd
       0.12222945 0.02678003 -0.031131508 -0.0947152
000270 ce 6f b6 bd 77 2a c8 bc 1d c3 5d 3d b2 77 03 bd
       -0.08908044 -0.024434311 0.054141153 -0.032096572
000280 ff 3b d3 3c 41 23 8b bc e3 bb 76 3d ab 8a 97 bd
       0.025785444 -0.016984584 0.060237776 -0.07399496
000290 48 36 b5 3d b3 f8 8d bd 32 ad 75 3b 06 7c ea 3d
       0.08848244 -0.06932201 0.0037487266 0.11449437
0002a0 24 45 1a 3c f7 0d 2e bc ff ec 82 bd ea 33 a0 3d
       0.0094158985 -0.010623447 -0.0639286 0.07822402
0002b0 fe 3d f9 3d 60 6c 3b be 82 af 99 bd 1a e8 e0 3d
       0.12170027 -0.1830306 -0.075041786 0.1098177
0002c0 0b d2 c5 bd cb 8b e1 bd e0 a7 b8 bc 6a 36 4b be
       -0.09659203 -0.110129915 -0.022540987 -0.19844976
0002d0 7c 83 48 3d 64 18 6e 3c 1a ec b1 bd d0 5f 9a bd
       0.04895352 0.014532182 -0.08687611 -0.07537806
0002e0 e0 a2 94 bd e2 22 da 3b 10 43 2e 3d 92 47 0f be
       -0.072576284 0.0066569904 0.042544425 -0.13992146
0002f0 14 c3 ac 3d 0a 56 cc bd a1 1c 4c bc e9 4e ee bd
       0.08435646 -0.09977348 -0.012457998 -0.11636145
000300 01 65 f5 3d ba a6 16 3d 5c 5d 09 bc c6 b8 30 3c
       0.119821556 0.036780097 -0.008384075 0.010786241
000310 6c 8e 87 bc d3 49 33 bd d4 44 e5 bd da 48 4c 3b
       -0.016547404 -0.043771576 -0.111947685 0.0031171353
000320 1b f7 ea 3d f8 bb 19 3d cd 26 00 be 38 fa b9 bd
       0.11472913 0.037532777 -0.12514801 -0.090809286
000330 ac c6 09 3d 96 a1 3b 3d 18 b9 a4 3d 63 fe 0c be
       0.033636734 0.045808397 0.08043116 -0.13768916
000340 20 30 49 bc e9 33 05 be e2 37 a3 bd 69 fc 76 3d
       -0.01227954 -0.13008083 -0.07969643 0.06029931
000350 fb 1b 92 bc b1 68 99 bd 30 cd 25 be e2 93 c0 bd
       -0.017835608 -0.074906714 -0.16191554 -0.094032064
000360 9c bd 6e 3d 5b 0b f2 bd 24 f6 33 bd 3c 68 17 be
       0.058286294 -0.11818572 -0.04393591 -0.14785856
000370 0d 31 39 bd 6a fd ee bc 16 2f e1 3c 3d 98 98 3d
       -0.045212794 -0.029173572 0.027488273 0.07450912
000380 25 5f ad 3c f4 17 3a 3e ad b0 71 3d 4c 5a a4 bd
       0.021163533 0.181732 0.05900638 -0.08025035
000390 2e cc ab bd b0 75 87 bd 64 3b ab bd 33 7b 46 3d
       -0.083885536 -0.06614244 -0.08360937 0.048457336
0003a0 28 73 e4 3d 95 b6 82 3c 0d 86 ab bc 46 36 c6 3d
       0.11154777 0.015956203 -0.020937944 0.096783206
0003b0 42 9d 66 3d fc 19 64 3d 17 71 da 3d 12 10 12 bc
       0.056302316 0.055688843 0.106661014 -0.008914964
0003c0 df 59 88 bd 02 b9 2d bd a0 88 cc bd f1 46 52 3c
       -0.066577666 -0.042412765 -0.09986997 0.012834297
0003d0 d0 af 79 bc 92 61 3a be 21 73 ee bd 06 f2 3a be
       -0.015239671 -0.18201283 -0.11643053 -0.18256387
0003e0 c5 a0 11 bd c6 f4 60 3d 1f 2c 85 3d 4c 6d b1 bc
       -0.035553712 0.054920934 0.06502556 -0.021658562
0003f0 08 18 7b bb 4d f2 35 3d c0 69 c3 3d e2 0c 62 bd
       -0.0038313884 0.04442053 0.095416546 -0.055188067

lstm.weight_hh_l0 f4 [256, 64]
000000 3a 7e d6 bc a2 e7 67 3d 33 52 eb bc a7 91 9f bd
       -0.026183236 0.056617387 -0.02872572 -0.07791453
000010 69 f5 e4 bd 28 8f bf bd 93 c5 c7 bb b0 b9 b4 bb
       -0.11179621 -0.09353477 -0.0060965507 -0.0055152997
000020 53 90 f9 3c a1 18 88 3d d0 bd b5 3d a3 73 04 3d
       0.030464327 0.066453226 0.088740945 0.032336842
000030 45 5c e4 3c 6b d0 47 bd c3 28 32 3d 4a 53 de 3d
       0.027876029 -0.048782747 0.043495905 0.1085573
000040 90 e3 8e bd 35 97 89 bd 3f a6 86 3c 41 e4 0b 3e
       -0.06976998 -0.067182936 0.016436694 0.1366129
000050 66 35 a8 bd da 34 ba bc 9d 0d 1a be 6c 62 63 bd
       -0.0821331 -0.02273028 -0.15044256 -0.055513784
000060 11 8d 65 bd ea ad 32 3e 8d e2 50 3b 6d e3 61 bd
       -0.056042735 0.17449155 0.0031873316 -0.05514853
000070 65 54 8f bb ec 13 0b 3c fb 5b dc bd 96 d7 05 be
       -0.0043740743 0.008488636 -0.107597314 -0.13070521
000080 b6 04 f1 3c 38 11 d3 bd 2a 42 05 bd 07 0e 0e 3d
       0.029421192 -0.103060186 -0.032533802 0.034681346
000090 a4 14 5d bd c0 ec a3 bb c0 9d ca 3d b8 e1 31 ba
       -0.053974763 -0.005002588 0.0989337 -0.0006785649
0000a0 06 f3 c9 bc c2 73 49 3d 2d 48 33 3e dd 63 dc 3c
       -0.024652015 0.04918266 0.17508002 0.026903087
0000b0 41 73 d3 bd e6 70 b1 bd c4 36 a6 3d 46 62 05 3e
       -0.10324717 -0.08664112 0.081159145 0.1302577
0000c0 6f 18 08 3d 57 a7 9a bd b8 a2 49 bd fe 7a b4 3d
       0.033226427 -0.07551449 -0.049227446 0.088125214
0000d0 e3 cc aa bc e5 fa 23 3d 83 58 e2 3c 7c a3 c0 bd
       -0.02084965 0.040034194 0.027630096 -0.09406182
0000e0 d1 4b 69 3d 7d 17 e9 3d f0 a2 65 bd c1 1f b4 3d
       0.05695707 0.11381433 -0.056063592 0.08795119
0000f0 db db fd bd ea ed 97 bd 0f 39 bf bd a4 0f 88 bd
       -0.1239545 -0.074184254 -0.09337055 -0.06643608
000100 c7 af f8 3d c1 6a 6a bd 13 52 f2 bb f1 a5 e2 3c
       0.12142902 -0.057230715 -0.007395038 0.027667018
000110 9c 1b 1c be 59 22 a1 bd 65 a0 81 3d 80 61 f5 bd
       -0.15244907 -0.078678794 0.06329421 -0.11981487
000120 b8 4c e0 bd 2c 88 75 bd 5f a6 0e 3e 87 88 07 3e
       -0.10952133 -0.059944317 0.13930653 0.13235675
000130 bd b9 12 be dc 2f 1f b8 a4 20 43 be 5f 2e bb 3d
       -0.14328666 -3.7953127e-05 -0.1905542 0.09139704
000140 21 d2 8c bc 73 eb a1 ba fd 2e 4a bd 87 ec 69 bb
       -0.017190041 -0.0012353495 -0.049361218 -0.003569396
000150 3c 97 cb bd a3 49 3a 3d a6 c2 c5 3c ad 5e 8c 3d
       -0.09940955 0.04548038 0.024140667 0.068539955
000160 96 1f 3d 3c 6b 5f 78 3d 56 33 00 be 6f 35 6e bb
       0.011543175 0.060637873 -0.12519583 -0.0036347767
000170 00 32 17 3d 41 92 a4 3d ea 33 ca 3d af e5 74 bb
       0.036912918 0.08035708 0.09873183 -0.0037368347
000180 70 94 06 3d 8d 34 31 bd 30 a7 e4 bc cc 14 d5 bd
       0.032856405 -0.043263007 -0.027911752 -0.10404357
000190 e0 d8 a8 bd a1 70 38 bd f2 99 18 be 1a fd 11 bd
       -0.082444906 -0.045029286 -0.14902475 -0.035641767
0001a0 31 99 dd bd 0f a3 b4 3d d7 c7 b3 3d 6a b8 da bd
       -0.108202346 0.088201635 0.08778351 -0.106797054
0001b0 db 24 c0 bd f6 dd ef 3b 6b 89 0f 3d 4e c3 58 3c
       -0.093820296 0.007320161 0.03504316 0.013230158
0001c0 0c c0 22 be 32 55 b7 3d 8e 25 8c bd b8 96 cf bc
       -0.15893573 0.089517966 -0.068431005 -0.025340423
0001d0 b5 47 6b 3d f3 ee 2b 3d aa ec 29 3d cd b0 bc 3c
       0.057441432 0.041975927 0.041485466 0.023033524
0001e0 48 5f 88 3c a7 ed 26 3c 32 74 89 bd 9d 31 cc 3c
       0.016646996 0.010188497 -0.067116156 0.024926001
0001f0 02 e7 08 be 34 53 dd 3d 6f 1c c7 3c a7 9a 1f be
       -0.13369372 0.10806885 0.02430555 -0.15586339
000200 dd 86 6e bd 2b 5c fd bd e1 13 05 3d 6d cd fc 3d
       -0.058234084 -0.12371095 0.03248966 0.12343869
000210 5b d6 ce 3c 2a 75 fd 3d 50 ab c3 3d 64 e8 9f bd
       0.025248697 0.12375863 0.0955416 -0.07807997
000220 93 bb 32 3e 88 f7 b8 bd c7 6b 30 3d 18 80 53 3d
       0.17454366 -0.09031588 0.043071534 0.05163583
000230 63 b7 74 3d a7 46 b5 bd 01 1c 06 be 51 1a 66 3d
       0.059745204 -0.088513665 -0.1309662 0.05617744
000240 f6 a8 84 bd 12 ec 2e 3e 1c fc 6c bc 6c 6b 65 bd
       -0.06477539 0.17082241 -0.014464404 -0.05601065
000250 14 8c 5d bd 7b 04 28 bd 90 9c 24 bd ae b7 16 be
       -0.054088667 -0.041019898 -0.040188372 -0.14718506
000260 d3 0b c6 3d 80 53 a2 3d 07 f3 21 be 9f bc 04 3e
       0.09670224 0.079260826 -0.15815364 0.12962578
000270 2a 2d 4e bc 94 d2 fd 3a 57 36 b5 3d fd 0d 06 bc
       -0.01258401 0.0019365125 0.08848255 -0.008182046
000280 1f b2 e2 3c b0 cf a1 bd 7b b4 80 3d 47 73 81 bd
       0.027672825 -0.07900941 0.06284424 -0.063208155
000290 b1 cb 0d be b5 91 7e bd b3 0f 1a be 0f 53 41 be
       -0.13847233 -0.062150676 -0.15045051 -0.1887934
0002a0 dc 9e ed bd 15 b7 fb 3d 36 da de bd 5f 5d 0d 3d
       -0.11602566 0.122907795 -0.10881464 0.034512874
0002b0 d7 de 2a 3d 83 d5 c5 bc d5 27 3c bd 8e c1 b2 bd
       0.041716423 -0.024149662 -0.045936424 -0.08728324
0002c0 28 a9 53 bd d6 da dc bd 8d 2c 41 bc 92 6d 6d bc
       -0.05167499 -0.10783927 -0.011790407 -0.014491456
0002d0 63 57 b0 bd d3 45 e1 bc 2a 87 36 be 8c 0a b1 3d
       -0.08610418 -0.027499115 -0.17824998 0.0864459
0002e0 cd 68 53 3c 85 0e b3 3d 47 8b 06 be ce ed 6b 3d
       0.012903404 0.08743004 -0.13139068 0.057599835
0002f0 37 78 d8 bd d0 35 65 bd 6f 65 9a bd 09 2e 17 be
       -0.10569804 -0.055959523 -0.07538878 -0.14763655
000300 47 1f 92 3d b2 00 a9 3d 2d 9e fa bc 1c cf 1c bd
       0.07134872 0.08252086 -0.030593002 -0.038283452
000310 2e 60 b4 3d 04 01 b1 bd 9b ba 4a bd d7 03 00 be
       0.08807407 -0.08642772 -0.049494367 -0.12501465
000320 a7 cb e4 bd 8b 54 3c be d9 d3 30 3d b0 7c 0e bd
       -0.11171656 -0.18391626 0.043170784 -0.03478688
000330 a4 cb 91 bd c6 33 80 3c 31 6d 9f 3c 49 7c fe bd
       -0.071189195 0.015649687 0.019461246 -0.12426049
000340 0a d8 9c bd 20 69 a4 bd eb d1 95 3c c0 ed 8a 3d
       -0.07658394 -0.080278635 0.018288573 0.067836285
000350 c7 e2 1b be f9 86 99 3d 5d f8 81 3d fa bb 81 bd
       -0.15223227 0.07496447 0.063462 -0.06334682
000360 bb af 36 bd 77 2c de 3d 4b 12 ae 3d 91 fe e9 3d
       -0.044601183 0.10848325 0.08499583 0.11425508
000370 d0 b4 76 bd df b0 fb 3d 00 68 8e bc c0 b9 a2 39
       -0.06023103 0.12289595 -0.017383575 0.00031037442
000380 aa 6b 03 be 07 25 16 3d 28 e0 76 bd 55 92 2f 3d
       -0.1283404 0.036656406 -0.060272366 0.042864162
000390 81 01 d0 3d c5 b0 b6 3d 54 aa 9e 3d 44 e6 95 bc
       0.10156537 0.08920435 0.07747331 -0.018298276
0003a0 7e 2f 66 3c 9c be 8c 3c 2e 04 81 bb 98 bb 36 3d
       0.014049409 0.017180733 -0.003937266 0.044612497
0003b0 69 a4 00 bd 57 13 a5 3d 52 81 2b 3d ea a7 87 3d
       -0.031406794 0.080603294 0.041871376 0.06623824
0003c0 5b 2c 16 3d 7d b7 47 3d 3d ac 2c 3d c6 b0 24 bd
       0.036663394 0.048758972 0.042156447 -0.040207647
0003d0 5d 80 e2 bb 37 36 79 3d 7b d8 2f 3d 39 1f f1 3d
       -0.0069122748 0.06084272 0.04293106 0.117735334
0003e0 bd 21 3f be fc 6d 07 3e 82 8e b5 bd 41 24 4a bc
       -0.18665214 0.1322555 -0.08865072 -0.012337745
0003f0 bb 34 ba 3c be d9 c4 3c a8 0b c7 bd 32 d0 8c 3c
       0.022730222 0.024029609 -0.0971902 0.017189119

lstm.bias_ih_l0 f4 [256]
000000 46 09 01 3e 12 65 f8 bb 7b a8 90 bb 20 29 f0 bc
       0.12601194 -0.007580408 -0.0044146157 -0.029316485
000010 fb 73 0e 3e e8 2a 74 bd 4a 34 d7 3d 0d 26 55 bd
       0.1391143 -0.05961123 0.1050802 -0.05203824
000020 12 4e 21 3d 4a af f1 3d 3f bd df 3c e3 f9 ef bd
       0.039381094 0.11801012 0.02731192 -0.11717584
000030 90 70 15 3c d5 6d 48 bd e2 b2 2d bd 90 98 13 bd
       0.009121075 -0.04893287 -0.042406924 -0.036034167
000040 09 25 db 3d a3 f6 da bd 60 8b de bd a3 85 06 3e
       0.10700423 -0.106915735 -0.108664274 0.13136916
000050 bb 6a 05 3e f0 47 e4 3d 4d f4 a6 3d f4 b3 05 3e
       0.13028996 0.111465335 0.081520654 0.13056928
000060 b5 91 a6 bd 52 ea e8 3d c0 55 c5 bd e8 6b 32 bd
       -0.0813326 0.11372818 -0.09635496 -0.04355994
000070 2b 69 43 3d f8 21 9f bb c6 6b eb 3c 1e b0 84 3d
       0.047707718 -0.0048563443 0.028737914 0.06478904
000080 d8 24 2c 3d 67 bc 7b bb f5 c2 b3 3d b3 77 b0 3c
       0.042027324 -0.0038411857 0.087774195 0.021541452
000090 aa 70 80 bd 24 9d 88 bd eb 35 c3 3d a8 54 e5 bc
       -0.06271489 -0.06670597 0.095317684 -0.027994469
0000a0 c9 3e 53 3d 87 b1 68 3d 9e 75 3f 3c 8d d0 96 3d
       0.05157355 0.05680993 0.011685757 0.07363997
0000b0 08 27 ee 3d e1 a5 bd bb 91 4a c4 3d 59 45 16 3d
       0.11628538 -0.0057875966 0.09584535 0.03668723
0000c0 18 5d ea bd 4a 39 5f bd a9 dd 80 bb e7 1b 44 bd
       -0.114435375 -0.054497994 -0.003932674 -0.047878172
0000d0 bf a1 29 3d fe 29 f5 3d 52 7c 75 3c 5a 50 91 3d
       0.04141402 0.119709 0.014983254 0.07095404
0000e0 9d 4c 9e 3d ed c6 0e 3e 2c 47 0d 3e 8f 25 18 bd
       0.077294566 0.13943072 0.13796681 -0.037145194
0000f0 fb 5e 0a be bb 8c c2 bd 3d 16 1a 3a f1 43 73 3d
       -0.13512795 -0.094994985 0.00058779476 0.059390966
000100 f8 c6 c1 bd ff 1c 6d 3d 25 c7 6b bd 89 51 a5 bd
       -0.094617784 0.05788898 -0.057562966 -0.08072192
000110 48 6e 47 bc ab 1b 07 3e 19 6e ed 3d 83 35 e3 bb
       -0.012172289 0.13194148 0.11593265 -0.0069338693
000120 de db 96 bd f7 5d f6 bc 09 60 27 3d 23 49 92 bd
       -0.07366155 -0.030074103 0.04086307 -0.07142856
000130 20 23 9d b9 41 fe d2 3d 78 c5 ac bd 59 ed f1 3d
       -0.00029971544 0.10302401 -0.08436102 0.118128486
000140 bd a2 8d 3d bc a3 c0 3d d2 b6 a3 3d 33 1f 1b 3d
       0.069158055 0.0940623 0.079938546 0.03787155
000150 ee 14 f6 bc 17 08 94 3b c5 65 44 bb 80 d7 99 bc
       -0.030039277 0.004517566 -0.0029967886 -0.018779516
000160 db ea e2 3c 7c 27 a0 bd 16 bc b1 3d db 58 5d 3c
       0.027699878 -0.07820031 0.08678453 0.013509954
000170 c7 23 03 bd 35 b5 d3 bd f1 b0 9a 3b 57 36 ee 3d
       -0.03201654 -0.10337297 0.0047208 0.11631458
000180 23 10 f1 3b 3a 07 60 3d bc c5 81 3d 67 f9 5a bd
       0.00735666 0.05469439 0.06336543 -0.053460505
000190 ec 3d 77 bd b1 4e f6 bd 78 a2 fc 3c c4 54 0d 3e
       -0.060361788 -0.12026728 0.03083919 0.13801867
0001a0 8d a4 79 3d 75 a9 d6 3b 9a 17 91 bd b8 25 fb bd
       0.060947943 0.0065509626 -0.0708458 -0.12263054
0001b0 eb 76 a4 3d 63 1f 2f 3d 8b eb e9 bd 25 b3 b7 3b
       0.08030494 0.042754542 -0.114218794 0.0056060725
0001c0 c7 9b 5e bd 95 7b ff 3d 32 25 8b bc 63 20 14 3e
       -0.05434778 0.12474743 -0.01698551 0.1446548
0001d0 3f 55 e7 bd 55 99 d8 3d f6 cd 3b 3d 6c 1d 9e 3d
       -0.11295556 0.10576121 0.045850717 0.077204555
0001e0 ca 5d 3d 3d 7c b4 d0 bd ea 4e d9 3d e0 1e 91 3d
       0.046232022 -0.10190675 0.10610755 0.07085967
0001f0 95 3a b8 3d ed c0 b2 bd 74 32 ce 3c ac 55 0c bd
       0.08995549 -0.08728204 0.025170542 -0.03426139
000200 0a c5 9d 3d f2 44 82 bd cd 73 9e bd b4 83 c5 3c
       0.07703598 -0.063608065 -0.07736931 0.024110653
000210 c4 bf 6b bd 10 86 b2 bc 17 cb db 3c d9 78 b0 bd
       -0.05755593 -0.021792442 0.02683024 -0.086168
000220 4e 62 37 bd ec 78 c2 bd f5 0d a8 3d 3a ae 00 be
       -0.044771485 -0.0949572 0.08205787 -0.12566462
000230 14 c4 48 bd 30 3a 2f bd 8e 3a ae bd c9 d2 a6 bd
       -0.04901512 -0.0427801 -0.08507262 -0.08145673
000240 94 1a b2 bd 4a cd 5c 3d 1e 91 e4 bd df 64 92 3d
       -0.086964756 0.053906716 -0.111604914 0.07148146
000250 b2 5b 99 bd 20 f8 ee bd e5 2a 91 bd fa ea 9a bd
       -0.074881926 -0.1166842 -0.070882596 -0.075643495
000260 b5 21 c1 3d 59 b9 6f bc a0 f5 10 3d 6c ea c1 3d
       0.09430257 -0.014631593 0.035390496 0.094685405
000270 c2 29 0d 3d 36 86 fd bc 48 8c 8b bd 38 b2 0b bd
       0.03446365 -0.030947786 -0.06813866 -0.03410551
000280 46 a8 76 bd 3c 96 94 bd 47 0d b5 bd 4e 51 b1 bd
       -0.06021907 -0.072552174 -0.08840423 -0.08658086
000290 9c e4 24 3c 29 90 0c 3d 6f e3 0e 3d ae 62 00 be
       0.01006427 0.03431717 0.034884866 -0.12537643
0002a0 96 7c b0 bd 26 90 b2 3d 91 23 96 bd 33 01 9e 3d
       -0.08617513 0.087189004 -0.073310025 0.077150725
0002b0 a9 d0 9e bd 3f 9d 9e bc 44 a4 c2 3d 3d a5 d7 3d
       -0.077546425 -0.01936209 0.095039874 0.105295636
0002c0 03 1a de 3d a7 3f 69 39 b4 f9 a0 3d 19 38 e5 3d
       0.10844805 0.00022244324 0.07860127 0.111923404
0002d0 fc 28 93 bd 95 19 ef bc f8 55 70 bd d1 cb 9b 3d
       -0.071855515 -0.029187003 -0.058675736 0.07607234
0002e0 bb 49 1d bc c3 26 1a bb 22 64 bd 3d 47 5d 72 bd
       -0.009600098 -0.002352164 0.092476144 -0.059170987
0002f0 80 8f 60 bd 7e 6f f6 3d b2 ce 12 bd c6 42 61 bd
       -0.054824352 0.12032984 -0.03584165 -0.05499532
000300 e3 b1 af 3d c6 54 c0 3d 02 01 65 bd 14 0e fc 3d
       0.08578851 0.09391169 -0.055909164 0.12307373
000310 52 6c 1e 3e 81 5f ca bd 5c 5f 1e 3d 5b 41 4c bd
       0.15471008 -0.09881497 0.03866516 -0.049867015
000320 28 d9 1d bb 72 c4 11 3e 7e 83 ab 3c dc 4f 8d bd
       -0.0024085734 0.14235094 0.020936724 -0.068999976
000330 a2 8f 94 3c 13 3a ac bd 13 5c 03 bc 5a fa c8 3d
       0.018134896 -0.08409514 -0.008017558 0.09813376
000340 78 5e c8 3d 1f d9 44 bd 46 54 ab bd 0a d3 dd bc
       0.097836435 -0.048058625 -0.08365683 -0.02707817
000350 ef e2 ed 3d 9d 48 00 3e 5b d5 b2 ba f0 90 e1 3d
       0.1161555 0.125277 -0.0013643907 0.11013973
000360 5e 22 95 bd 0e cd b0 3d 2d fd a1 3d c0 a9 8a 3d
       -0.07281946 0.08632861 0.079096176 0.067706585
000370 db c7 e7 bb 4e 9e 93 3d eb bd d0 bd 6e 08 14 3c
       -0.007073385 0.072079286 -0.10192474 0.009035213
000380 c5 7b ef 3d 34 3e 2d 3e ba 95 36 3d 88 23 96 bd
       0.11693529 0.1691826 0.044576384 -0.07330996
000390 1c b2 4e bd 22 6f 8b bd 2b 43 27 bb 09 35 1c bc
       -0.050462827 -0.06808306 -0.0025522213 -0.009534129
0003a0 16 73 07 3e 1a ce 32 3c 55 11 0b bd 44 15 14 3d
       0.13227496 0.010913396 -0.033952076 0.036153093
0003b0 00 39 bf 3c 28 3a 88 3d 93 ec cb bd e4 59 e0 3d
       0.02334261 0.066517174 -0.09957232 0.10954645
0003c0 ce 07 0c 3e c2 c3 3d 3e e4 3a 05 3e f0 bd 90 3d
       0.13674852 0.18531707 0.13010746 0.07067478
0003d0 52 a6 cd bb 36 24 9f 3d 58 ce c7 3d 7f c9 65 3d
       -0.0062759304 0.077705786 0.09756154 0.056100365
0003e0 ca f6 97 3d 7d 2c 04 3e 6a 1e 14 3e 7d 02 30 bd
       0.07420118 0.12907596 0.14464727 -0.042971123
0003f0 fa f4 a5 bd 74 71 86 bd 91 1a 89 3d 1e de 6b 3b
       -0.08103366 -0.06564608 0.0669452 0.0035990546

lstm.bias_hh_l0 f4 [256]
000000 d2 0a 09 3d ed f8 18 3e 4c 1d 78 bd d3 de e4 3d
       0.033457585 0.14938708 -0.060574815 0.11175313
000010 16 15 9d 3d 62 da f3 3d 63 d7 79 bd 6c 4e d7 3d
       0.076700374 0.119068876 -0.060996424 0.10513005
000020 20 1e ae 3d dd 69 2f 3d 78 ff 1b 3c 2b 7a b3 bb
       0.0850184 0.04282557 0.009521358 -0.00547721
000030 b4 6f e6 3d 52 d6 b0 3d 86 20 16 3d 67 64 97 bd
       0.112517744 0.08634628 0.03665211 -0.07392197
000040 95 d6 c1 3c 3e 89 dd bc e9 3c fd 3d f7 3b 0a 3e
       0.023661891 -0.027042981 0.12365133 0.13499437
000050 36 8c 9b bc 45 20 18 3e 6d f3 f5 bc 20 d8 80 bb
       -0.018987756 0.1485606 -0.030023301 -0.003932014
000060 54 ee 23 3c c8 83 d8 3d 8d d9 11 3d a4 36 34 bd
       0.010005552 0.1057201 0.035607863 -0.04399742
000070 84 08 2b 3c 97 2f 0b 3e 66 61 b7 bb a4 70 da bb
       0.010439042 0.13592373 -0.0055963276 -0.00666626
000080 17 2c bf 3d 9b f7 4f 3c 8a 1a 8b 3d f9 8a 09 3c
       0.09334581 0.012693311 0.06792171 0.00839495
000090 95 8d 97 bd 42 85 d7 bd b6 aa 20 3e ed 40 32 3c
       -0.074000515 -0.10523464 0.15690121 0.010879737
0000a0 4c d2 97 3d 80 cd 3c 3a ba 3e b9 3d e2 9c 5b 3d
       0.07413158 0.0007202253 0.09045167 0.053616412
0000b0 06 20 a2 3d f5 48 c2 3d 0d ab b8 bd 3c 88 1b bd
       0.07916264 0.09486572 -0.09017 -0.03797172
0000c0 ac 30 63 3d a4 84 83 3c dd 78 4c 3d f4 30 9f 3d
       0.05546634 0.016054459 0.04991995 0.07773009
0000d0 e4 59 ed bc f0 ad 05 3e e2 88 a5 3d 52 57 e1 bc
       -0.028973527 0.13054633 0.08082749 -0.027507458
0000e0 26 ee cf 3d 42 7a 92 3d 69 eb e5 bc 4c 19 06 3e
       0.10152845 0.07152225 -0.028066354 0.13095587
0000f0 1d 9b 27 3d b2 9f 1c bd 55 ab ac bd 21 99 a8 3c
       0.040919412 -0.038238235 -0.084311165 0.02058083
000100 00 b3 c5 bd 10 5f 48 3d b1 5d 48 bd 6d c7 b1 3d
       -0.09653282 0.048918784 -0.048917476 0.086806156
000110 12 0e bd bd 35 70 cd bd 26 a6 4e bc a3 d9 44 bc
       -0.09231199 -0.100311674 -0.012612855 -0.012014779
000120 aa bd 99 bd 7a 95 8e bd 8e ee 21 bc 0c 3b a0 bd
       -0.07506879 -0.06962104 -0.009883536 -0.07823762
000130 7a 05 aa ba 18 33 7b 3c 84 10 a8 3d 88 6d cc 3d
       -0.0012971603 0.015332006 0.08206275 0.09981829
000140 9d 8d 2a 3c 4a 11 b6 bd 1a 96 8b 3c 5e a2 a5 bd
       0.01040974 -0.088900164 0.017039347 -0.0808761
000150 88 29 cd 3d 00 28 0b 3e bf 3f 15 3d 7e 4d 9e bd
       0.10017687 0.13589478 0.036437746 -0.07729624
000160 0d be db 3d 02 e9 1b bd e9 73 6d bd a5 b9 27 3d
       0.10729609 -0.03806401 -0.05797187 0.04094853
000170 fb db b1 3d e9 f5 87 bc a3 3b 2a bd d2 4a 1c bb
       0.08684536 -0.016596751 -0.04156078 -0.0023848307
000180 4e 91 10 bd 36 f7 b5 3c bb 47 b4 3d 73 7c ea 3d
       -0.035294823 0.022212606 0.08802744 0.11449518
000190 ee 89 b7 bc b9 ee bf 3d 33 ca d1 3d 47 6b 80 bd
       -0.022404637 0.093717046 0.102436446 -0.062704615
0001a0 17 ff 58 3d 41 65 21 3d e4 c2 b8 3d 0e 87 6c bd
       0.052977648 0.039403204 0.090215474 -0.057745986
0001b0 07 2e e8 3d 3b 44 26 bc 3f 48 e8 3d 4f 5c 6a bd
       0.11336904 -0.010148103 0.11341905 -0.05721694
0001c0 ed 5f e7 bd ce 1e 16 3e 5a 41 f6 bc 9d b9 56 bb
       -0.11297593 0.14660189 -0.030060459 -0.0032764443
0001d0 d9 9b c1 3d 0a 60 ef bb 64 d6 99 bd 58 db bc 3d
       0.09453554 -0.00730515 -0.07511595 0.09221524
0001e0 3a 79 b6 3d c5 4d 2e bd 1c d5 80 bd 0b 5a b2 3d
       0.08909841 -0.042554636 -0.062906474 0.087085806
0001f0 13 93 ca bc f5 92 e1 3d 81 a8 47 bd 4a fe a7 3d
       -0.024728334 0.11014358 -0.048744682 0.08202799
000200 b8 44 dc 3c 83 81 ad bd af d3 d5 3d 82 99 ff 3d
       0.026888236 -0.08471968 0.10440766 0.12480451
000210 64 a4 b1 3d e6 d8 c8 bd ff 02 ae 3d 23 01 fd 3d
       0.08673933 -0.09806995 0.08496665 0.123537324
000220 0c dd 93 bd fc 14 b9 bd 4d 15 8c 3c 59 af 3f 3d
       -0.07219896 -0.090372056 0.0171 0.046798084
000230 cc 2a b4 3d 40 d8 5e 3d 5e 0f 89 bd 33 eb a0 bc
       0.08797225 0.05440545 -0.06692384 -0.019643402
000240 9e a9 94 3c c6 89 96 3d dc 4a a2 bd 81 4f 94 3d
       0.018147286 0.07350497 -0.079244345 0.07241727
000250 9c d3 99 bd 96 ed 5f bd eb a8 5a 3d 63 b0 12 3e
       -0.075110644 -0.05466994 0.05338375 0.14325099
000260 73 ce c9 3d cd a7 28 bc 9e 4b d1 bc ed 7e a5 3b
       0.0985383 -0.010293913 -0.025548752 0.005050531
000270 fb 00 13 3c 95 8b 0d 3e 24 a2 b1 bd 60 49 93 39
       0.008972402 0.13822778 -0.08673504 0.00028092694
000280 0e 32 e9 3d e8 da 08 bc 69 e9 a7 3d 06 1b cc bd
       0.113865 -0.008352973 0.08198816 -0.09966092
000290 e8 f1 3b 3d be ac a0 3d 99 c9 97 bd cd 63 c2 3d
       0.045884997 0.07845448 -0.074114986 0.09491692
0002a0 9d 90 93 bc 56 87 79 3d cb 79 c0 bb 52 9d 66 3c
       -0.018013293 0.060920082 -0.005873894 0.014075594
0002b0 2e 13 8b bc e8 aa 9a 3d 1a 8f e7 3d 6b 53 19 3c
       -0.016976919 0.07552129 0.11306591 0.009358267
0002c0 f1 2f b9 bd 26 d6 b8 3c 81 cb db bd d4 8e 89 bd
       -0.09042347 0.022563051 -0.10732175 -0.067166954
0002d0 df b2 f7 bd 0c 2b fd bd 4a 58 86 3d 26 f8 36 bd
       -0.12094664 -0.12361726 0.065598086 -0.044670247
0002e0 00 c1 6d 3d e0 af 69 3d ac 84 d1 bd 23 5b d5 3d
       0.058045387 0.057052493 -0.10230383 0.104177736
0002f0 99 c6 bc 3d 8b 5f 8b 3d 27 b3 b3 3d a4 f4 dc bc
       0.09217567 0.06805333 0.08774405 -0.026972122
000300 ae b3 82 bc 8d 5f 1f 3d 09 7f eb 3d 7f 1a 45 bd
       -0.015954819 0.038909484 0.114988394 -0.04812097
000310 38 41 a5 3d af 32 3c bc 79 7a b9 3d 3d fa 19 3e
       0.0806908 -0.011486693 0.09056563 0.15036865
000320 e3 d1 b1 3b 70 bb a2 bd f3 68 e5 3b eb 18 dd bd
       0.005426632 -0.07945907 0.0070010363 -0.10795768
000330 53 cf bc 3d 85 7e ce bc 7b f7 f9 3d fc a0 ee 3d
       0.092192315 -0.025206814 0.12205406 0.11651799
000340 22 72 96 3d 9e 9d f1 3d 05 3c 57 3d b9 c7 2d 3e
       0.07345988 0.11797641 0.052547473 0.1697072
000350 c7 c8 dd 3d 9f 7f f7 3d d1 ff eb bc 7a f3 93 bd
       0.10829311 0.12084889 -0.028808506 -0.07224174
000360 66 02 9f bd c7 f1 0a 3e 65 b9 4c bd 03 f0 ed 3b
       -0.07764129 0.13568793 -0.049981494 0.0072612776
000370 71 f4 9a 3d a0 e9 f3 3d 17 98 e0 bd 32 58 04 be
       0.07566155 0.11909795 -0.10966509 -0.12924269
000380 77 e7 9f bb d7 c1 cc 3d 9e 38 1b 3e 59 cc 5c bd
       -0.0048798877 0.099979095 0.15158316 -0.05390582
000390 4b 73 23 3c 55 6d 8c bc 93 f3 ae 3d 36 3e e2 3d
       0.009976218 -0.017141977 0.08542552 0.11047022
0003a0 73 e4 19 3e e3 d8 d8 3b 4d ff f2 3c e0 c3 20 3d
       0.15028553 0.006617652 0.029662753 0.0392493
0003b0 2f 3f bd 3d 26 f3 8c 3d 42 e7 19 bd d4 38 04 3e
       0.09240567 0.068823144 -0.03757406 0.12912303
0003c0 64 75 28 3d a9 ea 25 3e 43 c3 4c 3d bf bd 04 bc
       0.041127577 0.16202797 0.049990904 -0.00810188
0003d0 36 d3 86 3c b1 ec 91 3c e8 61 ae 3d 38 23 98 bc
       0.016458135 0.017813059 0.08514768 -0.018571481
0003e0 64 7a 6c bd 40 bb c7 3d 08 b9 31 bd f2 25 a8 3d
       -0.05773391 0.09752512 -0.04338935 0.082103625
0003f0 90 fb d9 bd da 9a 43 bd fd ca 79 bd 3c 01 33 3d
       -0.10643685 -0.0477551 -0.0609846 0.04370235

lstm.weight_ih_l1 f4 [256, 64]
000000 d1 ea 43 bc 88 7b 42 3d a3 80 9c bd 74 24 d0 3d
       -0.01195784 0.04748109 -0.07641723 0.10163203
000010 3a f9 f3 bb a6 ff 9e bd e4 0f 01 3e c0 74 13 be
       -0.0074454816 -0.07763605 0.12603718 -0.14400005
000020 57 16 05 3e c8 cc bb 3d ce 4c 6e bc 14 ca 8d bd
       0.12996803 0.09169918 -0.014544679 -0.06923309
000030 6d 39 0b be a7 40 5c bd fb da 61 3d 0c eb 8c bd
       -0.13596125 -0.053772595 0.055140477 -0.06880769
000040 62 e9 1a bc 67 9a 61 bc 06 31 d6 bc be 23 a2 3d
       -0.009455057 -0.013769723 -0.026146423 0.079169735
000050 8b aa 91 3c 3e 16 7b 3d c3 01 a6 3d 0b 76 07 be
       0.017781517 0.06130051 0.08105805 -0.13228624
000060 02 d1 77 bc 08 20 36 3d 79 3e d5 bd cd 52 9c 3d
       -0.015125515 0.04446414 -0.10412306 0.076329805
000070 ca b1 b7 3d 0f 48 d5 3d fe 6d c1 3d 56 b0 bd ba
       0.089694574 0.10414135 0.094448075 -0.0014472108
000080 f8 f4 54 bc 73 bf 47 3d 4d ff 01 3e 0d a0 c4 bd
       -0.012997858 0.048766565 0.12695046 -0.0960084
000090 2b b3 8c bc e9 ba 7a 3d ad 77 83 3d e9 c2 2d be
       -0.017175278 0.061213408 0.06419311 -0.16968884
0000a0 c1 bc 5f 3d 83 12 2c 3a 0a ab c9 bd 75 3c a1 3d
       0.05462337 0.0006564038 -0.09847076 0.078728594
0000b0 80 13 a5 3c c7 dc 70 3d 9b 84 29 3e c2 44 03 3e
       0.0201509 0.0588043 0.16554491 0.12819198
0000c0 b7 3e b3 bc bc 81 8e 3d 88 9e e1 3c fd c0 ca bc
       -0.02188049 0.069583386 0.027541414 -0.024750227
0000d0 54 84 15 3b f8 8e 13 be 95 7c 87 3d 8a 07 f3 bd
       0.002281447 -0.14410007 0.06615559 -0.11866672
0000e0 71 b9 85 3d a7 4b 34 3d 5e dd c9 bc d9 bb 72 bd
       0.06529511 0.04401746 -0.024641689 -0.059261177
0000f0 0f 34 24 bd b8 e0 b3 3d 97 9e 09 3c cd 2d d4 3c
       -0.04008871 0.08783096 0.008399627 0.025900746
000100 26 25 aa 3c 46 28 ba bd fd 74 3c 3b 53 9b db 3d
       0.020769667 -0.09089713 0.0028756254 0.10722985
000110 ec 18 74 bd 21 82 50 3c a5 ca 3f 3d 21 27 48 3c
       -0.05959408 0.012726338 0.046824116 0.01221636
000120 43 ba d6 3d b8 11 a1 ba c1 e5 44 3d 6e 96 a3 bd
       0.10484745 -0.0012288606 0.048070673 -0.079876766
000130 89 77 aa bd 7a df 94 3d e7 84 83 3d 09 a8 25 3d
       -0.08323581 0.07269187 0.064218335 0.040443454
000140 a8 12 d0 3d a8 de ff 3d 0c 24 0f be 0e f0 39 3d
       0.101598084 0.1249364 -0.13978595 0.04539495
000150 a1 47 9e bd 8e 6e eb bd bb e0 ac 3d 63 fe ef bc
       -0.07728506 -0.11495696 0.084413014 -0.029296106
000160 d1 0f 4d 3b 34 f8 0e be 0a 50 99 bd 85 d7 e8 bd
       0.0031289945 -0.1396187 -0.07485969 -0.11369232
000170 f6 52 aa 3d 1d a3 15 bc 60 08 1b be e3 5a c1 bc
       0.08316605 -0.0091331275 -0.15139914 -0.023602908
000180 28 b9 f3 bd 42 84 ce 3c fc 26 54 3d 9d 77 a8 bd
       -0.1190055 0.02520955 0.05179499 -0.082259394
000190 ec 4d c7 bd 30 69 e8 3c d2 ac 37 3c 86 7d 6c bd
       -0.09731659 0.02837047 0.011210637 -0.057736896
0001a0 89 f9 09 3d 43 4b 1d bb d5 92 e3 3c e0 96 56 bd
       0.03368524 -0.0024001158 0.027779976 -0.05238998
0001b0 90 e5 24 be 74 8f 84 bd 70 94 b6 3c b2 ab 68 bb
       -0.16103196 -0.06472674 0.022287577 -0.003550273
0001c0 c6 6c a2 bd 83 cf 9a bd c9 45 db 3d 79 ac 72 bc
       -0.07930903 -0.07559111 0.1070667 -0.0148116285
0001d0 b8 85 2f bb 55 a5 9a 3c 3f 02 88 3d db 20 83 3c
       -0.0026782583 0.018877665 0.066410534 0.016006878
0001e0 e5 2a e8 3d 88 39 fa 3d b6 b9 b7 bd 44 67 cd 3b
       0.113363065 0.122180045 -0.089709684 0.0062684137
0001f0 43 ca e9 bd 9d ac 4b bd a2 d7 1b bd ba ce 84 bd
       -0.114155315 -0.049725164 -0.03804744 -0.064847425
000200 11 18 8a bd d3 5e 9b 3d cb f9 11 3c da 89 eb 3c
       -0.067428716 0.07586446 0.008909653 0.028752256
000210 f3 d8 10 3d 79 8d 00 3e ec c0 de 38 d6 22 50 3c
       0.03536315 0.12553968 0.000106217194 0.012703618
000220 3f 4c 0e 3e 1c a9 8e 3d 97 4c ad bd 4c 1d b1 bd
       0.13896273 0.06965849 -0.08461874 -0.08648166
000230 96 b9 77 bc dd 2b dc bc 25 56 9e bc 64 91 89 bd
       -0.015119931 -0.026876384 -0.019328186 -0.06717184
000240 e2 c1 89 3d f7 91 dc bc 72 36 e0 3d 42 d8 01 be
       0.06726433 -0.02692507 0.109478846 -0.12680152
000250 11 7d 03 3c 14 3a f0 bd f4 8d b8 3c 86 20 94 3d
       0.008025424 -0.117298275 0.022528626 0.07232766
000260 22 9b 9a bd cd d2 05 be bf 68 74 3d 18 34 c7 bd
       -0.075491205 -0.13068695 0.059670206 -0.09726733
000270 ce f2 34 3d 7d fc 92 3d 01 05 99 3d c2 cd 43 3c
       0.04417687 0.071770646 0.074716575 0.011950912
000280 4b a9 a2 3d a1 98 db bc f8 9f 9c bc 0c 5e 1d bd
       0.07942446 -0.026806178 -0.019119248 -0.03841977
000290 3a 7b 87 3d 2e 04 10 3d 26 53 b6 3d 85 e9 de bc
       0.066153005 0.035160236 0.08902578 -0.02721096
0002a0 32 06 5e bd a1 e6 a9 3d 4b 6f ca 3d f9 7d 24 bd
       -0.054205127 0.08295942 0.09884509 -0.0401592
0002b0 68 d6 39 bc bd 46 72 bc 0d 0f 9b bc 8e f4 aa 3b
       -0.011342622 -0.014787373 -0.018928075 0.0052171415
0002c0 b4 69 18 bd ff 4e 02 3e 36 25 62 3d a6 39 de bd
       -0.03721018 0.12725447 0.05521127 -0.10850839
0002d0 cc 05 22 3c 6c 42 5f 3d 0d ce f7 3d 0d 80 b3 bd
       0.009889077 0.054506704 0.12099848 -0.08764658
0002e0 4c e0 b6 bc 59 0e a4 3b 48 e1 2f 3d 9b 39 bb 3d
       -0.02232375 0.005006593 0.042939454 0.09141847
0002f0 49 1c b8 bd ce 92 51 3d d4 44 b5 3b 45 a9 74 3d
       -0.0898977 0.051165394 0.0055318866 0.05973174
000300 94 ea 67 bd 41 a5 55 3c a5 cf b3 bd 1e a9 03 3e
       -0.056620196 0.013039888 -0.087798394 0.12857482
000310 63 93 6b 3d 89 2b 12 3e b9 45 15 3d 28 df 99 bd
       0.057513606 0.1427442 0.036443446 -0.07513267
000320 c0 22 eb 3d 96 41 88 3d bd 10 c5 bd 75 18 5f bd
       0.114812374 0.066531345 -0.09622333 -0.054466683
000330 09 a2 aa bd 4d 5a 02 be c1 34 8f bd 20 dd 85 bd
       -0.08331687 -0.1272976 -0.06992484 -0.06536317
000340 fa 7d 88 bd 60 96 09 3e 44 a1 4e 3d 13 38 74 3d
       -0.06664653 0.1343627 0.050446764 0.05962379
000350 6a a4 88 3d 44 59 33 3d 44 56 0a 3e 4e 82 a2 bd
       0.066719845 0.043786302 0.1350947 -0.0793501
000360 be d9 98 bd 63 03 2a bd 6f 1c e5 3c f9 d2 1b bd
       -0.07463406 -0.041507136 0.02796766 -0.038042996
000370 0d f8 ff bd 81 f6 71 bd d7 fc b6 3c 57 28 5c bd
       -0.12498484 -0.059072975 0.02233736 -0.05374941
000380 c8 27 d7 bd e0 fc 8d 3d 02 ed f7 3c ee a9 94 3c
       -0.105056345 0.06932998 0.030264381 0.018147435
000390 e9 3f f2 bd 5a 9f c4 bd 68 dc a3 bd a3 eb c5 bd
       -0.11828596 -0.096007064 -0.080010235 -0.09664085
0003a0 13 49 9b bc 3b b3 52 3c 16 7c ea bd 4b 10 95 bd
       -0.018955743 0.012860115 -0.11449449 -0.07278498
0003b0 be 95 4a bd b2 44 8d 3d f3 21 a3 bd c8 af 1e 3d
       -0.04945921 0.06897868 -0.0796546 0.038741857
0003c0 a8 5c b3 3d 02 04 a6 bc 0d 6a 96 bd 7b d6 1b 3e
       0.08757907 -0.020265583 -0.07344446 0.15218537
0003d0 ed e1 15 be 34 f0 1d be 21 9f 32 bb 5f 2a ac 3d
       -0.14636965 -0.15423661 -0.0027255493 0.08406519
0003e0 5c 92 f4 3c 31 6a 36 bd c4 96 df 3c 04 43 ac 3d
       0.029854946 -0.044534866 0.02729357 0.0841122
0003f0 a6 ff af 3d 12 7b ec 3d 7e bb 92 bd 4d b0 8b bd
       0.08593683 0.11546911 -0.071646675 -0.06820736

lstm.weight_hh_l1 f4 [256, 64]
000000 ed 18 ed bc a2 a5 a4 bd ed 16 9d bd f5 e8 86 3d
       -0.02894255 -0.080394045 -0.07670388 0.06587402
000010 59 f5 bf bd 15 40 76 3d 4f 84 2b bd 53 96 91 bc
       -0.09372968 0.060119707 -0.041874226 -0.017771875
000020 96 62 d3 3d dc 2f 0e 3d 93 24 ea 3d ad d3 df 3c
       0.10321538 0.03471361 0.11432757 0.027322615
000030 f3 8a e1 3c 53 a1 25 bd 27 8c af 3d 8b 92 28 bd
       0.027532076 -0.040437054 0.08571654 -0.04115538
000040 5a 26 56 bd ba 75 de bd 62 76 c2 bd ab ed ce bd
       -0.05228267 -0.10862298 -0.09495236 -0.10103925
000050 ea 0d 96 bd 1f 87 8b bd db 94 6b bd 76 34 b5 bd
       -0.07326873 -0.06812882 -0.057515007 -0.08847897
000060 ca fa 04 be 3e e7 43 3e 06 c4 91 bd 89 1d 87 3d
       -0.12986293 0.1913118 -0.07117467 0.0659743
000070 b9 a8 f2 3d 9d 85 03 3c 58 0e 5b bd a8 34 dd bd
       0.118485875 0.008027461 -0.053480476 -0.10801059
000080 25 ce 76 bd c9 7c cd bd 30 80 01 3c 04 e3 31 3e
       -0.06025519 -0.100335665 0.007904097 0.17371756
000090 23 64 30 3e a5 ec af 3d 0d c2 c1 3d f8 2b 8f 3c
       0.17225699 0.08590058 0.094608404 0.01747702
0000a0 c7 d9 a8 bd 61 39 09 bc df c8 40 bd 84 78 5a bc
       -0.08244663 -0.008375497 -0.047066566 -0.013334397
0000b0 6c 8d 62 bd 76 a6 c3 bd 8c e5 53 3d 50 ad e2 bc
       -0.05531065 -0.09553234 0.051732585 -0.027670532
0000c0 4e ab fc bc 52 a1 b7 3d 72 19 ca 3d 5e 43 25 3d
       -0.030843403 0.08966316 0.098681346 0.04034745
0000d0 26 20 57 ba ac 5f c0 bd 26 c2 86 3d 27 1b dc bd
       -0.00082063896 -0.09393248 0.065799996 -0.107473664
0000e0 4c 59 48 bd f3 f8 15 bc eb e8 90 3d 94 aa a3 bc
       -0.048913285 -0.009153592 0.070756756 -0.019978799
0000f0 d5 64 4c bd 04 1d ad bb cc eb f0 3d e3 71 91 3c
       -0.04990085 -0.005283 0.11763725 0.0177545
000100 0e 4a e9 3d f5 bf 44 bc 3b 8e 6e bd 0a 1a c2 3d
       0.11391078 -0.012008657 -0.05824111 0.09477623
000110 22 b1 bf 3b e5 96 a8 3d 78 ba e5 3d c9 ca a4 bd
       0.0058499733 0.08231906 0.11217207 -0.08046491
000120 68 17 e2 bc 43 34 fd bc df 5a a7 3d be c3 89 3c
       -0.027599052 -0.03090871 0.08171629 0.01681697
000130 c8 5e 15 3e 2c 5e 0c be 78 da 52 3d f8 8f 6f 3d
       0.14586937 -0.13707799 0.05147788 0.05848691
000140 ac 83 1a ba 2d c1 fe bb 98 32 23 3d ce 9e a2 3d
       -0.00058942544 -0.007774493 0.03984317 0.07940446
000150 0f 83 86 bd 18 c0 0a be e0 a7 3b bb 2d 22 55 bb
       -0.06567966 -0.1354984 -0.0028633997 -0.003252159
000160 55 b6 41 bd 77 06 01 bd a1 41 a3 bc 76 5d 55 bd
       -0.047293026 -0.031500306 -0.019928755 -0.052091084
000170 f8 cc a4 3c 7f f7 83 3c 1b 67 98 bd 92 80 0a bc
       0.020117268 0.016109226 -0.07441541 -0.008453505
000180 84 fc 02 3e a4 a9 dc bd 87 32 95 3d 14 25 9b 3d
       0.1279164 -0.10774544 0.07285028 0.075754315
000190 8e ee d3 bc 0a b1 de 3d ca f2 1b 3e 7f 13 e2 3d
       -0.025870588 0.10873611 0.15229335 0.11038875
0001a0 97 90 2d bd 59 1c 2e bd 58 d3 fd bd 5b f2 15 be
       -0.04237422 -0.042507503 -0.12393826 -0.14643233
0001b0 db 1e 1a 3c af 8d bf bd 34 93 ae bd 29 22 a4 bd
       0.009406771 -0.09353196 -0.085241705 -0.08014328
0001c0 e7 29 61 3d 49 de 7b bd c4 20 1e bd c8 c5 f8 bd
       0.0549716 -0.061491285 -0.038605466 -0.12147099
0001d0 cc 2a 36 3d 7e b5 49 bd cc 28 9a 3d b3 08 06 be
       0.044474408 -0.04924535 0.07527313 -0.13089256
0001e0 bb 47 98 bd 09 26 d8 bd 29 44 be 3d 32 84 5b 3d
       -0.074355565 -0.1055413 0.09290344 0.05359287
0001f0 b4 ad 91 bd d2 5c 00 be 64 5d 4d 3a 7d 2a 06 bd
       -0.07113209 -0.12535408 0.00078340457 -0.032755364
000200 68 02 c1 bd 6c 4a 8a bc 2e ca 3e bd de ad 8b 3d
       -0.09424287 -0.01688119 -0.046579532 0.06820272
000210 8b 29 28 3d b2 46 8b bc ed 8b cd bd 92 53 ac bd
       0.041055243 -0.017001484 -0.10036454 -0.08414377
000220 a5 d1 e6 bd e6 18 cc bd ec 39 fa bd a9 c5 cb bd
       -0.11270455 -0.099656865 -0.12218079 -0.0994981
000230 01 0d bc 3b b5 b1 7d bd 5a f7 71 3d c1 25 d6 bd
       0.005738855 -0.061937053 0.059073783 -0.1045642
000240 36 8a 01 3e b3 22 2b bd e4 a5 a3 3d 80 8d 9a bd
       0.1265038 -0.04178114 0.079906255 -0.0754652
000250 8d 7c fe 3c 8c 40 69 3d 1b 3f 07 be 24 98 9b 3d
       0.03106525 0.056946322 -0.13207667 0.07597378
000260 1b 6c 0f 3d 21 67 e0 bd 17 a9 87 bb 90 3a 83 3d
       0.035015207 -0.1095717 -0.00414003 0.06407654
000270 64 3a 8b 3d 21 e7 d2 3d 04 9c c0 3c e0 58 0b ba
       0.067982465 0.102979906 0.023511894 -0.00053156726
000280 ab a0 b8 3c 2f 75 ad 3d 9f 5c af 3d c5 de a1 bd
       0.02253755 0.084696166 0.08562588 -0.07903818
000290 6a 01 00 be b9 b8 d3 bd d3 24 cb 3d 92 0c 44 bd
       -0.1250054 -0.103379674 0.09919133 -0.04786355
0002a0 84 d7 92 bd 2f 24 ee 3b 85 d3 ab bc 9c 82 a6 bd
       -0.071700126 0.007267497 -0.020974884 -0.081303805
0002b0 a6 fa c5 3d bf 10 ae 3d 96 76 d0 3c 30 b1 4e bd
       0.09666948 0.08499288 0.025447171 -0.050461948
0002c0 f7 58 14 bd e7 bc 4a bd 77 28 7c 3c ea f2 17 3d
       -0.036217656 -0.049496558 0.015390507 0.037096895
0002d0 67 ef 4f 3d f0 12 c5 bd a2 af eb 3b bc a8 bc bd
       0.05076542 -0.09622753 0.007192568 -0.09211871
0002e0 8a 06 7a 3b 24 54 a9 3b 3d 3d 0a 3e c8 38 23 3d
       0.003815087 0.005167501 0.13499923 0.039849073
0002f0 40 b4 32 bc 37 2e 03 be 31 72 a8 3d 3f 4a 47 3d
       -0.010907233 -0.12810598 0.08224905 0.04865479
000300 7d a7 16 3e 19 ee 87 3d bd 6d 96 3d 12 c4 66 bd
       0.14712329 0.066372104 0.0734515 -0.05633933
000310 00 6f 28 3c 1f b2 b3 3d 5f 5d 8a 3d c9 0a 80 bd
       0.010280371 0.08774208 0.067560904 -0.06252057
000320 67 05 f7 3d f5 07 9d bd c4 de 7c bd 7d 02 4d 3c
       0.12061577 -0.07667533 -0.061735883 0.0125128
000330 8b e6 df 3d 00 0a 37 bc 18 78 50 bc bf a6 0c 3d
       0.109326445 -0.011171818 -0.012723945 0.03433871
000340 ca d6 70 bc 82 25 8c bc fe fd 27 3d e9 d9 1b bd
       -0.014699647 -0.017107729 0.04101371 -0.038049612
000350 7b c4 9c 3d d0 f9 ab bd dd f6 93 3c 8a fb 88 3d
       0.07654663 -0.08397257 0.01806205 0.06688602
000360 ed c3 fc 3c 56 15 86 bc 60 03 9c 3d 92 ea d4 bd
       0.030855143 -0.016367596 0.07617831 -0.10396303
000370 2b ec 32 3d 87 50 0c 3d e9 b7 11 bd b0 89 58 bc
       0.04368226 0.034256484 -0.03557578 -0.013216421
000380 3d 6b 81 bd 09 4f 89 bd 09 98 a6 3b 12 76 03 bd
       -0.06319282 -0.06704528 0.005084042 -0.032095022
000390 2c c7 41 3d 45 ea 0e 3e 8f bf 0a bd 6b e3 ec 3a
       0.047309086 0.13956554 -0.03387409 0.0018073147
0003a0 66 c8 d1 3d e7 31 d5 bb a6 e0 50 3d 1a 35 de bc
       0.10243301 -0.006506193 0.05099549 -0.02712493
0003b0 ad a4 ad 3d 42 9f f1 3c 44 62 f7 bd 5e 94 62 3d
       0.08478675 0.029494885 -0.120792896 0.055317275
0003c0 09 f6 c5 bd f7 88 88 bd 99 73 00 3d 3c 99 ac 3d
       -0.09666068 -0.06666749 0.031360243 0.08427665
0003d0 8b f9 2a 3d dd b0 c7 3c f9 10 6b bb f8 74 d9 bc
       0.04174189 0.024376327 -0.003586827 -0.026545033
0003e0 9b 48 ac 3d 6e 35 8f bd 0c 82 c3 bd 19 8e 5f bd
       0.08412286 -0.06992613 -0.09546289 -0.054578874
0003f0 66 25 e4 bc de 86 ac 3c 9d d7 12 bd 07 84 ed 3d
       -0.027849864 0.021060403 -0.035850156 0.11597448

lstm.bias_ih_l1 f4 [256]
000000 ba 24 73 bd 8e 98 40 3c 62 c8 53 bd 3d 14 d9 3d
       -0.059361197 0.011755122 -0.05170477 0.10599563
000010 55 ec 57 3d e2 c1 09 3e 09 59 0e 3d cc f0 d7 bd
       0.05271562 0.13452867 0.03475288 -0.10543975
000020 29 78 21 bd 80 6d bf 3d 30 b8 8e bd 3b 5b e7 bc
       -0.039421234 0.09347057 -0.06968725 -0.028241744
000030 84 99 f2 3d 92 87 13 bd 67 81 c8 3d 23 0d b0 3d
       0.11845687 -0.03601796 0.097903065 0.08596256
000040 05 9c 90 bd 1a 60 e0 3d 6e a7 c0 bd 5b dc 93 bd
       -0.07061008 0.1095583 -0.09406935 -0.07219764
000050 3e 9c 89 bc 6f 1a fc 39 ab 5d e4 bd 52 81 d9 3c
       -0.016798135 0.0004808488 -0.11150678 0.026550923
000060 af da 05 3e 01 99 e9 3d 2b ea a2 bd e1 15 1f bc
       0.13071702 0.11406136 -0.0795482 -0.009709806
000070 1f 3f d0 bd b1 91 d1 bd 8c 7a 03 bd 49 93 5e 3b
       -0.101682894 -0.102328666 -0.03209929 0.00339623
000080 de b1 82 bc 94 ca 0f 3c cc 76 83 bc 3c d3 aa 3d
       -0.015953954 0.008776326 -0.016047858 0.08341071
000090 9f 99 45 bd d1 c9 1c 3b dd 64 e8 3d 79 2f 0f 3e
       -0.048242208 0.0023924003 0.11347363 0.13982953
0000a0 cd 8c e1 3d 33 7c 85 bd e1 6f f4 3c a9 c1 a9 3d
       0.11013184 -0.0651783 0.029838504 0.08288891
0000b0 74 73 cc 3d b1 5c 64 3d 72 ce ca bd e2 4d b1 3c
       0.099829584 0.05575246 -0.099026576 0.021643583
0000c0 b6 cf 13 3e d4 e4 3b bc a2 53 a0 3d 4c fd 47 3c
       0.14434704 -0.011468131 0.07828452 0.012206387
0000d0 8e 05 4b 3d 68 12 06 3e 7c 62 f3 3d f0 a5 78 3d
       0.049565844 0.13092959 0.11884019 0.060705125
0000e0 2a 3c d0 bd 76 f8 d8 bd bc 0d 85 3c 78 55 7f bc
       -0.101677254 -0.10594265 0.0162419 -0.015584342
0000f0 7f ae 02 3d 36 00 99 3d e1 66 20 3d 2d 68 af 3d
       0.031904694 0.07470743 0.039160613 0.08564792
000100 ce 42 0e bd de ca 08 bc 80 43 06 3e 6c 6e 1c 3e
       -0.03473168 -0.008349149 0.13111687 0.15276498
000110 fe fb 4d bc 59 1f 13 3e cc 0b 03 3e bc b6 99 bd
       -0.012572287 0.14367427 0.12797469 -0.07505557
000120 ef bb 99 bc 89 02 ac 3d f0 0c 17 3e 94 d1 38 3e
       -0.018766372 0.08398921 0.14751029 0.18048698
000130 8c 86 ce bd 74 4e c0 3d eb 01 d8 3d 6b 4a 6f 3c
       -0.100842565 0.09389964 0.10547241 0.014605145
000140 7c 6d b2 bd df 82 ce 3d 6f 54 96 bc 21 2f ba 3d
       -0.08712289 0.100835554 -0.018350808 0.090910204
000150 0e f1 81 3c 88 bd cd 3d 58 88 e9 3d 0b 54 94 3d
       0.015862014 0.10045916 0.11402959 0.072425924
000160 c0 2e 98 bb 37 f7 c8 3d c9 be f8 3d 64 bd 6c 3c
       -0.004644245 0.098127775 0.121457644 0.014449451
000170 38 ed c5 3d 35 67 c1 3d d3 d4 f0 3d dd 76 a3 bd
       0.096643865 0.09443513 0.11759343 -0.07981656
000180 26 1b e2 3d da c7 76 bb d5 be fa 3d 82 8f ba bd
       0.110403344 -0.0037655742 0.122434296 -0.09109403
000190 b2 81 57 3d a8 ca d1 bc 5d 3f 8c 3d 63 b7 0d bd
       0.05261392 -0.02560933 0.06848023 -0.03459872
0001a0 95 bd da 3d 3d 5d 98 bc c3 50 19 3d 00 76 11 bd
       0.10680691 -0.018599147 0.037430536 -0.035512924
0001b0 a0 cc a3 3d 2f 1d c5 3c 0c 51 82 3d d0 32 f4 3c
       0.079980135 0.024061767 0.06363115 0.029809386
0001c0 ac c7 38 bd 5f 87 0f 3e 3b 24 06 3e 85 57 96 bd
       -0.045112297 0.14016484 0.13099758 -0.07340912
0001d0 e0 3c 56 bd 8b 2b 13 3e 6e 3c 58 3c f7 91 16 3e
       -0.05230415 0.14372079 0.013198001 0.14704119
0001e0 48 bd 18 3e f9 cc ed 3d fc e4 75 bc 17 b6 ce 3d
       0.14915955 0.11611361 -0.015008207 0.10093325
0001f0 b8 93 bc 3d fa 51 c9 bd 4f 7e cd 3c 75 ad 1c 3d
       0.092078626 -0.09830089 0.025084643 0.03825136
000200 fe 86 15 3e 00 6d dc 3c c8 bd 18 3d ff 43 14 bd
       0.14602277 0.026907444 0.037290365 -0.03619766
000210 40 7a f4 bd f1 38 df 3d ed 35 c0 3b 82 a2 5d bd
       -0.1193738 0.108995326 0.0058658035 -0.054110058
000220 94 05 3f 3c 73 4c 0f 3b 3b af aa bd 8d e3 03 3e
       0.011659045 0.0021865636 -0.08334204 0.12879772
000230 d6 8a 82 3d 7a 6a ce 3c 94 57 94 bd 42 5a 93 3d
       0.06374137 0.025197256 -0.07243267 0.0719495
000240 28 ae ee 3d f0 3f 64 bd c4 7e a8 3d 6b 84 1e be
       0.116543114 -0.055725038 0.082273036 -0.15480201
000250 5a 6a b4 bd dc 1c 62 bd e3 68 fd bd 6e c0 ac 3d
       -0.088093475 -0.055203304 -0.12373521 0.084351406
000260 c2 e8 cf bd f9 c3 03 bd 9d 89 8b bd 22 72 3d bd
       -0.10151817 -0.032169316 -0.06813357 -0.046251424
000270 fe 93 a0 3d d5 db ac bd 7d 54 0e be 4e 10 b8 bd
       0.07840727 -0.08440367 -0.13899417 -0.08987485
000280 c5 74 c6 bd db c4 75 bd 1d 2e d2 3d 2a 52 e7 3d
       -0.09690241 -0.06000219 0.10262702 0.112949684
000290 ad fe 89 3d 2b 7a 12 bd 85 57 1d 3d 29 93 3c 3d
       0.06738029 -0.03576104 0.038413543 0.04603878
0002a0 33 9c ab bd 29 b5 d8 bc e0 30 5b 3c 92 17 86 bd
       -0.08379402 -0.026453571 0.013378352 -0.065474644
0002b0 c6 6c 9d bd 71 ea 29 bd 3d 84 b6 bd f3 28 a1 3d
       -0.076867625 -0.041483346 -0.08911941 0.078691386
0002c0 36 bb 9d 3d 6a 6d d8 bd 87 94 5f 3d 8b ea a3 3d
       0.07701723 -0.10567744 0.054585006 0.0800372
0002d0 20 0b 6a bd 71 42 31 3d a9 b9 61 3d 9b 81 57 bd
       -0.057139516 0.043276254 0.0551087 -0.052613836
0002e0 8d d0 dd bd 15 aa 41 bb d9 bc d0 bd 47 08 9c 3d
       -0.108307935 -0.002955084 -0.1019227 0.07618766
0002f0 eb f1 9f bd 0d 54 e7 bc 49 32 90 3c 2d 2f e2 bc
       -0.07809814 -0.02823832 0.017602103 -0.027610386
000300 ff 8a b2 bd 1a c6 69 bc 57 8a d3 3d f5 05 12 3e
       -0.08717918 -0.0142684225 0.103291206 0.14260085
000310 9a e2 25 3e 2d 44 8d 3d aa f3 4e 3e 0f 56 9e 3d
       0.16199723 0.06897769 0.20210138 0.07731258
000320 34 57 38 bd 52 cb 03 bc f7 eb 32 bd 7e f6 61 3e
       -0.04500504 -0.008044081 -0.043682065 0.22066686
000330 91 86 e6 bc a2 2f ef 3d e3 2c a4 bd b8 fb ab bb
       -0.028140338 0.11679007 -0.08016374 -0.005248513
000340 17 b1 bf 3d 9b c5 05 bc 10 98 05 3e e1 27 25 bd
       0.09359949 -0.008164789 0.13046288 -0.040321235
000350 80 0d 06 3e bb 62 a7 bc 18 ae 85 bd d3 2d 4c 3d
       0.13091087 -0.02043282 -0.065273464 0.04984839
000360 e6 ca af 3c 7b c3 11 3e 44 36 a0 bc bc 11 8d 3d
       0.021459054 0.14234726 -0.019557126 0.06888148
000370 4b 13 b9 3d 26 40 04 3e fb 89 12 3e 85 a6 6a 3d
       0.09036883 0.12915096 0.14310448 0.05728771
000380 6e 2f 00 3d 11 0d 46 3d ef 65 fd 3d 3f dc d3 3d
       0.031295232 0.048352305 0.12372958 0.10344743
000390 49 7c 04 3e 9d 48 d8 bc 0f 2b 07 bc 78 df 85 3d
       0.12938036 -0.026401812 -0.008250012 0.06536764
0003a0 e7 df 5c bc 1c 61 ab 3b ab 2c df bd 68 37 73 bd
       -0.013481117 0.005230082 -0.108971916 -0.05937901
0003b0 23 57 d9 3d cd fd d6 bc 89 3f 08 3d 73 ca 14 3e
       0.10612323 -0.026244069 0.033263717 0.14530353
0003c0 ba 23 0d 3e f1 0c 1c 3d d3 23 84 3d 83 d2 13 bc
       0.1378316 0.03809828 0.064521454 -0.009022358
0003d0 15 68 11 3d 4e 6a 34 bc 8a 78 99 3d 02 f0 29 3e
       0.03549965 -0.011011673 0.07493694 0.16595462
0003e0 5d 21 6c bd ce 48 ac 3c b9 ac 58 bd 94 d1 41 bd
       -0.057649005 0.02103081 -0.052899096 -0.04731901
0003f0 85 85 4c bd c4 23 1f bd 13 79 89 bd fe 1a 24 3e
       -0.04993202 -0.038852468 -0.06712546 0.16025922
